<?xml version="1.0"?>
<net name="Model0" version="11">
	<layers>
		<layer id="0" name="im" type="Parameter" version="opset1">
			<data shape="2,3,512,512" element_type="f32" />
			<rt_info>
				<attribute name="old_api_map_element_type" version="0" value="f16" />
			</rt_info>
			<output>
				<port id="0" precision="FP32" names="im">
					<dim>2</dim>
					<dim>3</dim>
					<dim>512</dim>
					<dim>512</dim>
				</port>
			</output>
		</layer>
		<layer id="1" name="__module.encoder/aten::expand/Broadcast_29_compressed" type="Const" version="opset1">
			<data element_type="f16" shape="2, 1, 192" offset="0" size="768" />
			<output>
				<port id="0" precision="FP16" names="217,cls_tokens">
					<dim>2</dim>
					<dim>1</dim>
					<dim>192</dim>
				</port>
			</output>
		</layer>
		<layer id="2" name="__module.encoder/aten::expand/Broadcast_29" type="Convert" version="opset1">
			<data destination_type="f32" />
			<rt_info>
				<attribute name="decompression" version="0" />
			</rt_info>
			<input>
				<port id="0" precision="FP16">
					<dim>2</dim>
					<dim>1</dim>
					<dim>192</dim>
				</port>
			</input>
			<output>
				<port id="1" precision="FP32">
					<dim>2</dim>
					<dim>1</dim>
					<dim>192</dim>
				</port>
			</output>
		</layer>
		<layer id="3" name="self.encoder.patch_embed.proj.weight_compressed" type="Const" version="opset1">
			<data element_type="f16" shape="192, 3, 16, 16" offset="768" size="294912" />
			<output>
				<port id="0" precision="FP16" names="206,self.encoder.patch_embed.proj.weight">
					<dim>192</dim>
					<dim>3</dim>
					<dim>16</dim>
					<dim>16</dim>
				</port>
			</output>
		</layer>
		<layer id="4" name="self.encoder.patch_embed.proj.weight" type="Convert" version="opset1">
			<data destination_type="f32" />
			<rt_info>
				<attribute name="decompression" version="0" />
			</rt_info>
			<input>
				<port id="0" precision="FP16">
					<dim>192</dim>
					<dim>3</dim>
					<dim>16</dim>
					<dim>16</dim>
				</port>
			</input>
			<output>
				<port id="1" precision="FP32">
					<dim>192</dim>
					<dim>3</dim>
					<dim>16</dim>
					<dim>16</dim>
				</port>
			</output>
		</layer>
		<layer id="5" name="__module.encoder.patch_embed.proj/aten::_convolution/Convolution" type="Convolution" version="opset1">
			<data strides="16, 16" dilations="1, 1" pads_begin="0, 0" pads_end="0, 0" auto_pad="explicit" />
			<input>
				<port id="0" precision="FP32">
					<dim>2</dim>
					<dim>3</dim>
					<dim>512</dim>
					<dim>512</dim>
				</port>
				<port id="1" precision="FP32">
					<dim>192</dim>
					<dim>3</dim>
					<dim>16</dim>
					<dim>16</dim>
				</port>
			</input>
			<output>
				<port id="2" precision="FP32">
					<dim>2</dim>
					<dim>192</dim>
					<dim>32</dim>
					<dim>32</dim>
				</port>
			</output>
		</layer>
		<layer id="6" name="__module.encoder.patch_embed.proj/aten::_convolution/Reshape_compressed" type="Const" version="opset1">
			<data element_type="f16" shape="1, 192, 1, 1" offset="295680" size="384" />
			<output>
				<port id="0" precision="FP16">
					<dim>1</dim>
					<dim>192</dim>
					<dim>1</dim>
					<dim>1</dim>
				</port>
			</output>
		</layer>
		<layer id="7" name="__module.encoder.patch_embed.proj/aten::_convolution/Reshape" type="Convert" version="opset1">
			<data destination_type="f32" />
			<rt_info>
				<attribute name="decompression" version="0" />
			</rt_info>
			<input>
				<port id="0" precision="FP16">
					<dim>1</dim>
					<dim>192</dim>
					<dim>1</dim>
					<dim>1</dim>
				</port>
			</input>
			<output>
				<port id="1" precision="FP32">
					<dim>1</dim>
					<dim>192</dim>
					<dim>1</dim>
					<dim>1</dim>
				</port>
			</output>
		</layer>
		<layer id="8" name="__module.encoder.patch_embed.proj/aten::_convolution/Add_6" type="Add" version="opset1">
			<data auto_broadcast="numpy" />
			<input>
				<port id="0" precision="FP32">
					<dim>2</dim>
					<dim>192</dim>
					<dim>32</dim>
					<dim>32</dim>
				</port>
				<port id="1" precision="FP32">
					<dim>1</dim>
					<dim>192</dim>
					<dim>1</dim>
					<dim>1</dim>
				</port>
			</input>
			<output>
				<port id="2" precision="FP32" names="213">
					<dim>2</dim>
					<dim>192</dim>
					<dim>32</dim>
					<dim>32</dim>
				</port>
			</output>
		</layer>
		<layer id="9" name="__module.encoder.patch_embed/aten::flatten/Concat" type="Const" version="opset1">
			<data element_type="i32" shape="3" offset="296064" size="12" />
			<output>
				<port id="0" precision="I32">
					<dim>3</dim>
				</port>
			</output>
		</layer>
		<layer id="10" name="__module.encoder.patch_embed/aten::flatten/Reshape" type="Reshape" version="opset1">
			<data special_zero="true" />
			<input>
				<port id="0" precision="FP32">
					<dim>2</dim>
					<dim>192</dim>
					<dim>32</dim>
					<dim>32</dim>
				</port>
				<port id="1" precision="I32">
					<dim>3</dim>
				</port>
			</input>
			<output>
				<port id="2" precision="FP32" names="214">
					<dim>2</dim>
					<dim>192</dim>
					<dim>1024</dim>
				</port>
			</output>
		</layer>
		<layer id="11" name="__module.encoder.patch_embed/aten::transpose/ScatterElementsUpdate" type="Const" version="opset1">
			<data element_type="i32" shape="3" offset="296076" size="12" />
			<output>
				<port id="0" precision="I32">
					<dim>3</dim>
				</port>
			</output>
		</layer>
		<layer id="12" name="__module.encoder.patch_embed/aten::transpose/Transpose" type="Transpose" version="opset1">
			<input>
				<port id="0" precision="FP32">
					<dim>2</dim>
					<dim>192</dim>
					<dim>1024</dim>
				</port>
				<port id="1" precision="I32">
					<dim>3</dim>
				</port>
			</input>
			<output>
				<port id="2" precision="FP32" names="215,x.1">
					<dim>2</dim>
					<dim>1024</dim>
					<dim>192</dim>
				</port>
			</output>
		</layer>
		<layer id="13" name="__module.encoder/aten::cat/Concat" type="Concat" version="opset1">
			<data axis="1" />
			<input>
				<port id="0" precision="FP32">
					<dim>2</dim>
					<dim>1</dim>
					<dim>192</dim>
				</port>
				<port id="1" precision="FP32">
					<dim>2</dim>
					<dim>1024</dim>
					<dim>192</dim>
				</port>
			</input>
			<output>
				<port id="2" precision="FP32" names="219,x.3">
					<dim>2</dim>
					<dim>1025</dim>
					<dim>192</dim>
				</port>
			</output>
		</layer>
		<layer id="14" name="__module.encoder/aten::add/Multiply_compressed" type="Const" version="opset1">
			<data element_type="f16" shape="1, 1025, 192" offset="296088" size="393600" />
			<output>
				<port id="0" precision="FP16">
					<dim>1</dim>
					<dim>1025</dim>
					<dim>192</dim>
				</port>
			</output>
		</layer>
		<layer id="15" name="__module.encoder/aten::add/Multiply" type="Convert" version="opset1">
			<data destination_type="f32" />
			<rt_info>
				<attribute name="decompression" version="0" />
			</rt_info>
			<input>
				<port id="0" precision="FP16">
					<dim>1</dim>
					<dim>1025</dim>
					<dim>192</dim>
				</port>
			</input>
			<output>
				<port id="1" precision="FP32">
					<dim>1</dim>
					<dim>1025</dim>
					<dim>192</dim>
				</port>
			</output>
		</layer>
		<layer id="16" name="__module.encoder/aten::add/Add" type="Add" version="opset1">
			<data auto_broadcast="numpy" />
			<input>
				<port id="0" precision="FP32">
					<dim>2</dim>
					<dim>1025</dim>
					<dim>192</dim>
				</port>
				<port id="1" precision="FP32">
					<dim>1</dim>
					<dim>1025</dim>
					<dim>192</dim>
				</port>
			</input>
			<output>
				<port id="2" precision="FP32" names="220,input.1">
					<dim>2</dim>
					<dim>1025</dim>
					<dim>192</dim>
				</port>
			</output>
		</layer>
		<layer id="17" name="__module.encoder.blocks.0.norm1/aten::layer_norm/Constant" type="Const" version="opset1">
			<data element_type="i32" shape="1" offset="689688" size="4" />
			<output>
				<port id="0" precision="I32">
					<dim>1</dim>
				</port>
			</output>
		</layer>
		<layer id="18" name="__module.encoder.blocks.0.norm1/aten::layer_norm/MVN" type="MVN" version="opset6">
			<data eps="9.9999997473787516e-06" normalize_variance="true" eps_mode="INSIDE_SQRT" />
			<input>
				<port id="0" precision="FP32">
					<dim>2</dim>
					<dim>1025</dim>
					<dim>192</dim>
				</port>
				<port id="1" precision="I32">
					<dim>1</dim>
				</port>
			</input>
			<output>
				<port id="2" precision="FP32">
					<dim>2</dim>
					<dim>1025</dim>
					<dim>192</dim>
				</port>
			</output>
		</layer>
		<layer id="19" name="Constant_15049_compressed" type="Const" version="opset1">
			<data element_type="f16" shape="1, 1, 192" offset="689692" size="384" />
			<output>
				<port id="0" precision="FP16">
					<dim>1</dim>
					<dim>1</dim>
					<dim>192</dim>
				</port>
			</output>
		</layer>
		<layer id="20" name="Constant_15049" type="Convert" version="opset1">
			<data destination_type="f32" />
			<rt_info>
				<attribute name="decompression" version="0" />
			</rt_info>
			<input>
				<port id="0" precision="FP16">
					<dim>1</dim>
					<dim>1</dim>
					<dim>192</dim>
				</port>
			</input>
			<output>
				<port id="1" precision="FP32">
					<dim>1</dim>
					<dim>1</dim>
					<dim>192</dim>
				</port>
			</output>
		</layer>
		<layer id="21" name="__module.encoder.blocks.0.norm1/aten::layer_norm/Multiply" type="Multiply" version="opset1">
			<data auto_broadcast="numpy" />
			<input>
				<port id="0" precision="FP32">
					<dim>2</dim>
					<dim>1025</dim>
					<dim>192</dim>
				</port>
				<port id="1" precision="FP32">
					<dim>1</dim>
					<dim>1</dim>
					<dim>192</dim>
				</port>
			</input>
			<output>
				<port id="2" precision="FP32">
					<dim>2</dim>
					<dim>1025</dim>
					<dim>192</dim>
				</port>
			</output>
		</layer>
		<layer id="22" name="Constant_15050_compressed" type="Const" version="opset1">
			<data element_type="f16" shape="1, 1, 192" offset="690076" size="384" />
			<output>
				<port id="0" precision="FP16">
					<dim>1</dim>
					<dim>1</dim>
					<dim>192</dim>
				</port>
			</output>
		</layer>
		<layer id="23" name="Constant_15050" type="Convert" version="opset1">
			<data destination_type="f32" />
			<rt_info>
				<attribute name="decompression" version="0" />
			</rt_info>
			<input>
				<port id="0" precision="FP16">
					<dim>1</dim>
					<dim>1</dim>
					<dim>192</dim>
				</port>
			</input>
			<output>
				<port id="1" precision="FP32">
					<dim>1</dim>
					<dim>1</dim>
					<dim>192</dim>
				</port>
			</output>
		</layer>
		<layer id="24" name="__module.encoder.blocks.0.norm1/aten::layer_norm/Add" type="Add" version="opset1">
			<data auto_broadcast="numpy" />
			<input>
				<port id="0" precision="FP32">
					<dim>2</dim>
					<dim>1025</dim>
					<dim>192</dim>
				</port>
				<port id="1" precision="FP32">
					<dim>1</dim>
					<dim>1</dim>
					<dim>192</dim>
				</port>
			</input>
			<output>
				<port id="2" precision="FP32" names="221,x.5">
					<dim>2</dim>
					<dim>1025</dim>
					<dim>192</dim>
				</port>
			</output>
		</layer>
		<layer id="25" name="self.encoder.blocks.0.attn.qkv.weight_compressed" type="Const" version="opset1">
			<data element_type="f16" shape="576, 192" offset="690460" size="221184" />
			<output>
				<port id="0" precision="FP16" names="202,self.encoder.blocks.0.attn.qkv.weight">
					<dim>576</dim>
					<dim>192</dim>
				</port>
			</output>
		</layer>
		<layer id="26" name="self.encoder.blocks.0.attn.qkv.weight" type="Convert" version="opset1">
			<data destination_type="f32" />
			<rt_info>
				<attribute name="decompression" version="0" />
			</rt_info>
			<input>
				<port id="0" precision="FP16">
					<dim>576</dim>
					<dim>192</dim>
				</port>
			</input>
			<output>
				<port id="1" precision="FP32">
					<dim>576</dim>
					<dim>192</dim>
				</port>
			</output>
		</layer>
		<layer id="27" name="__module.encoder.blocks.0.attn.qkv/aten::linear/MatMul_39" type="MatMul" version="opset1">
			<data transpose_a="false" transpose_b="true" />
			<input>
				<port id="0" precision="FP32">
					<dim>2</dim>
					<dim>1025</dim>
					<dim>192</dim>
				</port>
				<port id="1" precision="FP32">
					<dim>576</dim>
					<dim>192</dim>
				</port>
			</input>
			<output>
				<port id="2" precision="FP32">
					<dim>2</dim>
					<dim>1025</dim>
					<dim>576</dim>
				</port>
			</output>
		</layer>
		<layer id="28" name="Constant_15051_compressed" type="Const" version="opset1">
			<data element_type="f16" shape="1, 1, 576" offset="911644" size="1152" />
			<output>
				<port id="0" precision="FP16">
					<dim>1</dim>
					<dim>1</dim>
					<dim>576</dim>
				</port>
			</output>
		</layer>
		<layer id="29" name="Constant_15051" type="Convert" version="opset1">
			<data destination_type="f32" />
			<rt_info>
				<attribute name="decompression" version="0" />
			</rt_info>
			<input>
				<port id="0" precision="FP16">
					<dim>1</dim>
					<dim>1</dim>
					<dim>576</dim>
				</port>
			</input>
			<output>
				<port id="1" precision="FP32">
					<dim>1</dim>
					<dim>1</dim>
					<dim>576</dim>
				</port>
			</output>
		</layer>
		<layer id="30" name="__module.encoder.blocks.0.attn.qkv/aten::linear/Add" type="Add" version="opset1">
			<data auto_broadcast="numpy" />
			<input>
				<port id="0" precision="FP32">
					<dim>2</dim>
					<dim>1025</dim>
					<dim>576</dim>
				</port>
				<port id="1" precision="FP32">
					<dim>1</dim>
					<dim>1</dim>
					<dim>576</dim>
				</port>
			</input>
			<output>
				<port id="2" precision="FP32" names="226">
					<dim>2</dim>
					<dim>1025</dim>
					<dim>576</dim>
				</port>
			</output>
		</layer>
		<layer id="31" name="__module.encoder.blocks.0.attn/prim::ListConstruct_40/Concat" type="Const" version="opset1">
			<data element_type="i32" shape="5" offset="912796" size="20" />
			<output>
				<port id="0" precision="I32" names="229">
					<dim>5</dim>
				</port>
			</output>
		</layer>
		<layer id="32" name="__module.encoder.blocks.0.attn/aten::reshape/Reshape" type="Reshape" version="opset1">
			<data special_zero="false" />
			<input>
				<port id="0" precision="FP32">
					<dim>2</dim>
					<dim>1025</dim>
					<dim>576</dim>
				</port>
				<port id="1" precision="I32">
					<dim>5</dim>
				</port>
			</input>
			<output>
				<port id="2" precision="FP32" names="230">
					<dim>2</dim>
					<dim>1025</dim>
					<dim>3</dim>
					<dim>3</dim>
					<dim>64</dim>
				</port>
			</output>
		</layer>
		<layer id="33" name="9" type="Const" version="opset1">
			<data element_type="i32" shape="5" offset="912816" size="20" />
			<output>
				<port id="0" precision="I32" names="9">
					<dim>5</dim>
				</port>
			</output>
		</layer>
		<layer id="34" name="__module.encoder.blocks.0.attn/aten::permute/Transpose" type="Transpose" version="opset1">
			<input>
				<port id="0" precision="FP32">
					<dim>2</dim>
					<dim>1025</dim>
					<dim>3</dim>
					<dim>3</dim>
					<dim>64</dim>
				</port>
				<port id="1" precision="I32">
					<dim>5</dim>
				</port>
			</input>
			<output>
				<port id="2" precision="FP32" names="231,qkv.1">
					<dim>3</dim>
					<dim>2</dim>
					<dim>3</dim>
					<dim>1025</dim>
					<dim>64</dim>
				</port>
			</output>
		</layer>
		<layer id="35" name="14" type="Const" version="opset1">
			<data element_type="i32" shape="" offset="912836" size="4" />
			<output>
				<port id="0" precision="I32" names="14" />
			</output>
		</layer>
		<layer id="36" name="__module.encoder.blocks.0.attn/aten::select/Gather" type="Gather" version="opset8">
			<data batch_dims="0" />
			<input>
				<port id="0" precision="FP32">
					<dim>3</dim>
					<dim>2</dim>
					<dim>3</dim>
					<dim>1025</dim>
					<dim>64</dim>
				</port>
				<port id="1" precision="I32" />
				<port id="2" precision="I32" />
			</input>
			<output>
				<port id="3" precision="FP32" names="232,q.1">
					<dim>2</dim>
					<dim>3</dim>
					<dim>1025</dim>
					<dim>64</dim>
				</port>
			</output>
		</layer>
		<layer id="37" name="16" type="Const" version="opset1">
			<data element_type="i32" shape="" offset="912840" size="4" />
			<output>
				<port id="0" precision="I32" names="16" />
			</output>
		</layer>
		<layer id="38" name="__module.encoder.blocks.0.attn/aten::select/Gather_41" type="Gather" version="opset8">
			<data batch_dims="0" />
			<input>
				<port id="0" precision="FP32">
					<dim>3</dim>
					<dim>2</dim>
					<dim>3</dim>
					<dim>1025</dim>
					<dim>64</dim>
				</port>
				<port id="1" precision="I32" />
				<port id="2" precision="I32" />
			</input>
			<output>
				<port id="3" precision="FP32" names="233,k.1">
					<dim>2</dim>
					<dim>3</dim>
					<dim>1025</dim>
					<dim>64</dim>
				</port>
			</output>
		</layer>
		<layer id="39" name="Constant_15052_compressed" type="Const" version="opset1">
			<data element_type="f16" shape="1, 1, 1, 1" offset="912844" size="2" />
			<output>
				<port id="0" precision="FP16">
					<dim>1</dim>
					<dim>1</dim>
					<dim>1</dim>
					<dim>1</dim>
				</port>
			</output>
		</layer>
		<layer id="40" name="Constant_15052" type="Convert" version="opset1">
			<data destination_type="f32" />
			<rt_info>
				<attribute name="decompression" version="0" />
			</rt_info>
			<input>
				<port id="0" precision="FP16">
					<dim>1</dim>
					<dim>1</dim>
					<dim>1</dim>
					<dim>1</dim>
				</port>
			</input>
			<output>
				<port id="1" precision="FP32">
					<dim>1</dim>
					<dim>1</dim>
					<dim>1</dim>
					<dim>1</dim>
				</port>
			</output>
		</layer>
		<layer id="41" name="Multiply_14803" type="Multiply" version="opset1">
			<data auto_broadcast="numpy" />
			<input>
				<port id="0" precision="FP32">
					<dim>2</dim>
					<dim>3</dim>
					<dim>1025</dim>
					<dim>64</dim>
				</port>
				<port id="1" precision="FP32">
					<dim>1</dim>
					<dim>1</dim>
					<dim>1</dim>
					<dim>1</dim>
				</port>
			</input>
			<output>
				<port id="2" precision="FP32">
					<dim>2</dim>
					<dim>3</dim>
					<dim>1025</dim>
					<dim>64</dim>
				</port>
			</output>
		</layer>
		<layer id="42" name="__module.encoder.blocks.0.attn/aten::mul/Multiply" type="MatMul" version="opset1">
			<data transpose_a="false" transpose_b="true" />
			<input>
				<port id="0" precision="FP32">
					<dim>2</dim>
					<dim>3</dim>
					<dim>1025</dim>
					<dim>64</dim>
				</port>
				<port id="1" precision="FP32">
					<dim>2</dim>
					<dim>3</dim>
					<dim>1025</dim>
					<dim>64</dim>
				</port>
			</input>
			<output>
				<port id="2" precision="FP32" names="237,attn.1">
					<dim>2</dim>
					<dim>3</dim>
					<dim>1025</dim>
					<dim>1025</dim>
				</port>
			</output>
		</layer>
		<layer id="43" name="__module.encoder.blocks.0.attn/aten::softmax/Softmax" type="SoftMax" version="opset8">
			<data axis="-1" />
			<input>
				<port id="0" precision="FP32">
					<dim>2</dim>
					<dim>3</dim>
					<dim>1025</dim>
					<dim>1025</dim>
				</port>
			</input>
			<output>
				<port id="1" precision="FP32" names="238,input.5">
					<dim>2</dim>
					<dim>3</dim>
					<dim>1025</dim>
					<dim>1025</dim>
				</port>
			</output>
		</layer>
		<layer id="44" name="26" type="Const" version="opset1">
			<data element_type="i32" shape="" offset="912846" size="4" />
			<output>
				<port id="0" precision="I32" names="26" />
			</output>
		</layer>
		<layer id="45" name="__module.encoder.blocks.0.attn/aten::select/Gather_42" type="Gather" version="opset8">
			<data batch_dims="0" />
			<input>
				<port id="0" precision="FP32">
					<dim>3</dim>
					<dim>2</dim>
					<dim>3</dim>
					<dim>1025</dim>
					<dim>64</dim>
				</port>
				<port id="1" precision="I32" />
				<port id="2" precision="I32" />
			</input>
			<output>
				<port id="3" precision="FP32" names="234,v.1">
					<dim>2</dim>
					<dim>3</dim>
					<dim>1025</dim>
					<dim>64</dim>
				</port>
			</output>
		</layer>
		<layer id="46" name="__module.encoder.blocks.0.attn/aten::matmul/MatMul_52" type="MatMul" version="opset1">
			<data transpose_a="false" transpose_b="false" />
			<input>
				<port id="0" precision="FP32">
					<dim>2</dim>
					<dim>3</dim>
					<dim>1025</dim>
					<dim>1025</dim>
				</port>
				<port id="1" precision="FP32">
					<dim>2</dim>
					<dim>3</dim>
					<dim>1025</dim>
					<dim>64</dim>
				</port>
			</input>
			<output>
				<port id="2" precision="FP32" names="239">
					<dim>2</dim>
					<dim>3</dim>
					<dim>1025</dim>
					<dim>64</dim>
				</port>
			</output>
		</layer>
		<layer id="47" name="__module.encoder.blocks.0.attn/aten::transpose/ScatterElementsUpdate_71" type="Const" version="opset1">
			<data element_type="i32" shape="4" offset="912850" size="16" />
			<output>
				<port id="0" precision="I32">
					<dim>4</dim>
				</port>
			</output>
		</layer>
		<layer id="48" name="__module.encoder.blocks.0.attn/aten::transpose/Transpose_72" type="Transpose" version="opset1">
			<input>
				<port id="0" precision="FP32">
					<dim>2</dim>
					<dim>3</dim>
					<dim>1025</dim>
					<dim>64</dim>
				</port>
				<port id="1" precision="I32">
					<dim>4</dim>
				</port>
			</input>
			<output>
				<port id="2" precision="FP32" names="240">
					<dim>2</dim>
					<dim>1025</dim>
					<dim>3</dim>
					<dim>64</dim>
				</port>
			</output>
		</layer>
		<layer id="49" name="__module.encoder.blocks.0.attn/prim::ListConstruct_75/Concat" type="Const" version="opset1">
			<data element_type="i32" shape="3" offset="912866" size="12" />
			<output>
				<port id="0" precision="I32" names="241">
					<dim>3</dim>
				</port>
			</output>
		</layer>
		<layer id="50" name="__module.encoder.blocks.0.attn/aten::reshape/Reshape_76" type="Reshape" version="opset1">
			<data special_zero="false" />
			<input>
				<port id="0" precision="FP32">
					<dim>2</dim>
					<dim>1025</dim>
					<dim>3</dim>
					<dim>64</dim>
				</port>
				<port id="1" precision="I32">
					<dim>3</dim>
				</port>
			</input>
			<output>
				<port id="2" precision="FP32" names="242,input.7">
					<dim>2</dim>
					<dim>1025</dim>
					<dim>192</dim>
				</port>
			</output>
		</layer>
		<layer id="51" name="self.encoder.blocks.0.attn.proj.weight_compressed" type="Const" version="opset1">
			<data element_type="f16" shape="192, 192" offset="912878" size="73728" />
			<output>
				<port id="0" precision="FP16" names="200,self.encoder.blocks.0.attn.proj.weight">
					<dim>192</dim>
					<dim>192</dim>
				</port>
			</output>
		</layer>
		<layer id="52" name="self.encoder.blocks.0.attn.proj.weight" type="Convert" version="opset1">
			<data destination_type="f32" />
			<rt_info>
				<attribute name="decompression" version="0" />
			</rt_info>
			<input>
				<port id="0" precision="FP16">
					<dim>192</dim>
					<dim>192</dim>
				</port>
			</input>
			<output>
				<port id="1" precision="FP32">
					<dim>192</dim>
					<dim>192</dim>
				</port>
			</output>
		</layer>
		<layer id="53" name="__module.encoder.blocks.0.attn.proj/aten::linear/MatMul_77" type="MatMul" version="opset1">
			<data transpose_a="false" transpose_b="true" />
			<input>
				<port id="0" precision="FP32">
					<dim>2</dim>
					<dim>1025</dim>
					<dim>192</dim>
				</port>
				<port id="1" precision="FP32">
					<dim>192</dim>
					<dim>192</dim>
				</port>
			</input>
			<output>
				<port id="2" precision="FP32">
					<dim>2</dim>
					<dim>1025</dim>
					<dim>192</dim>
				</port>
			</output>
		</layer>
		<layer id="54" name="Constant_15053_compressed" type="Const" version="opset1">
			<data element_type="f16" shape="1, 1, 192" offset="986606" size="384" />
			<output>
				<port id="0" precision="FP16">
					<dim>1</dim>
					<dim>1</dim>
					<dim>192</dim>
				</port>
			</output>
		</layer>
		<layer id="55" name="Constant_15053" type="Convert" version="opset1">
			<data destination_type="f32" />
			<rt_info>
				<attribute name="decompression" version="0" />
			</rt_info>
			<input>
				<port id="0" precision="FP16">
					<dim>1</dim>
					<dim>1</dim>
					<dim>192</dim>
				</port>
			</input>
			<output>
				<port id="1" precision="FP32">
					<dim>1</dim>
					<dim>1</dim>
					<dim>192</dim>
				</port>
			</output>
		</layer>
		<layer id="56" name="__module.encoder.blocks.0.attn.proj/aten::linear/Add" type="Add" version="opset1">
			<data auto_broadcast="numpy" />
			<input>
				<port id="0" precision="FP32">
					<dim>2</dim>
					<dim>1025</dim>
					<dim>192</dim>
				</port>
				<port id="1" precision="FP32">
					<dim>1</dim>
					<dim>1</dim>
					<dim>192</dim>
				</port>
			</input>
			<output>
				<port id="2" precision="FP32" names="243,input.9">
					<dim>2</dim>
					<dim>1025</dim>
					<dim>192</dim>
				</port>
			</output>
		</layer>
		<layer id="57" name="__module.encoder.blocks.0/aten::add/Add" type="Add" version="opset1">
			<data auto_broadcast="numpy" />
			<input>
				<port id="0" precision="FP32">
					<dim>2</dim>
					<dim>1025</dim>
					<dim>192</dim>
				</port>
				<port id="1" precision="FP32">
					<dim>2</dim>
					<dim>1025</dim>
					<dim>192</dim>
				</port>
			</input>
			<output>
				<port id="2" precision="FP32" names="244,input.11">
					<dim>2</dim>
					<dim>1025</dim>
					<dim>192</dim>
				</port>
			</output>
		</layer>
		<layer id="58" name="__module.encoder.blocks.0.norm2/aten::layer_norm/Constant" type="Const" version="opset1">
			<data element_type="i32" shape="1" offset="689688" size="4" />
			<output>
				<port id="0" precision="I32">
					<dim>1</dim>
				</port>
			</output>
		</layer>
		<layer id="59" name="__module.encoder.blocks.0.norm2/aten::layer_norm/MVN" type="MVN" version="opset6">
			<data eps="9.9999997473787516e-06" normalize_variance="true" eps_mode="INSIDE_SQRT" />
			<input>
				<port id="0" precision="FP32">
					<dim>2</dim>
					<dim>1025</dim>
					<dim>192</dim>
				</port>
				<port id="1" precision="I32">
					<dim>1</dim>
				</port>
			</input>
			<output>
				<port id="2" precision="FP32">
					<dim>2</dim>
					<dim>1025</dim>
					<dim>192</dim>
				</port>
			</output>
		</layer>
		<layer id="60" name="Constant_15054_compressed" type="Const" version="opset1">
			<data element_type="f16" shape="1, 1, 192" offset="986990" size="384" />
			<output>
				<port id="0" precision="FP16">
					<dim>1</dim>
					<dim>1</dim>
					<dim>192</dim>
				</port>
			</output>
		</layer>
		<layer id="61" name="Constant_15054" type="Convert" version="opset1">
			<data destination_type="f32" />
			<rt_info>
				<attribute name="decompression" version="0" />
			</rt_info>
			<input>
				<port id="0" precision="FP16">
					<dim>1</dim>
					<dim>1</dim>
					<dim>192</dim>
				</port>
			</input>
			<output>
				<port id="1" precision="FP32">
					<dim>1</dim>
					<dim>1</dim>
					<dim>192</dim>
				</port>
			</output>
		</layer>
		<layer id="62" name="__module.encoder.blocks.0.norm2/aten::layer_norm/Multiply" type="Multiply" version="opset1">
			<data auto_broadcast="numpy" />
			<input>
				<port id="0" precision="FP32">
					<dim>2</dim>
					<dim>1025</dim>
					<dim>192</dim>
				</port>
				<port id="1" precision="FP32">
					<dim>1</dim>
					<dim>1</dim>
					<dim>192</dim>
				</port>
			</input>
			<output>
				<port id="2" precision="FP32">
					<dim>2</dim>
					<dim>1025</dim>
					<dim>192</dim>
				</port>
			</output>
		</layer>
		<layer id="63" name="Constant_15055_compressed" type="Const" version="opset1">
			<data element_type="f16" shape="1, 1, 192" offset="987374" size="384" />
			<output>
				<port id="0" precision="FP16">
					<dim>1</dim>
					<dim>1</dim>
					<dim>192</dim>
				</port>
			</output>
		</layer>
		<layer id="64" name="Constant_15055" type="Convert" version="opset1">
			<data destination_type="f32" />
			<rt_info>
				<attribute name="decompression" version="0" />
			</rt_info>
			<input>
				<port id="0" precision="FP16">
					<dim>1</dim>
					<dim>1</dim>
					<dim>192</dim>
				</port>
			</input>
			<output>
				<port id="1" precision="FP32">
					<dim>1</dim>
					<dim>1</dim>
					<dim>192</dim>
				</port>
			</output>
		</layer>
		<layer id="65" name="__module.encoder.blocks.0.norm2/aten::layer_norm/Add" type="Add" version="opset1">
			<data auto_broadcast="numpy" />
			<input>
				<port id="0" precision="FP32">
					<dim>2</dim>
					<dim>1025</dim>
					<dim>192</dim>
				</port>
				<port id="1" precision="FP32">
					<dim>1</dim>
					<dim>1</dim>
					<dim>192</dim>
				</port>
			</input>
			<output>
				<port id="2" precision="FP32" names="245,input.13">
					<dim>2</dim>
					<dim>1025</dim>
					<dim>192</dim>
				</port>
			</output>
		</layer>
		<layer id="66" name="self.encoder.blocks.0.mlp.fc1.weight_compressed" type="Const" version="opset1">
			<data element_type="f16" shape="768, 192" offset="987758" size="294912" />
			<output>
				<port id="0" precision="FP16" names="196,self.encoder.blocks.0.mlp.fc1.weight">
					<dim>768</dim>
					<dim>192</dim>
				</port>
			</output>
		</layer>
		<layer id="67" name="self.encoder.blocks.0.mlp.fc1.weight" type="Convert" version="opset1">
			<data destination_type="f32" />
			<rt_info>
				<attribute name="decompression" version="0" />
			</rt_info>
			<input>
				<port id="0" precision="FP16">
					<dim>768</dim>
					<dim>192</dim>
				</port>
			</input>
			<output>
				<port id="1" precision="FP32">
					<dim>768</dim>
					<dim>192</dim>
				</port>
			</output>
		</layer>
		<layer id="68" name="__module.encoder.blocks.0.mlp.fc1/aten::linear/MatMul_78" type="MatMul" version="opset1">
			<data transpose_a="false" transpose_b="true" />
			<input>
				<port id="0" precision="FP32">
					<dim>2</dim>
					<dim>1025</dim>
					<dim>192</dim>
				</port>
				<port id="1" precision="FP32">
					<dim>768</dim>
					<dim>192</dim>
				</port>
			</input>
			<output>
				<port id="2" precision="FP32">
					<dim>2</dim>
					<dim>1025</dim>
					<dim>768</dim>
				</port>
			</output>
		</layer>
		<layer id="69" name="Constant_15056_compressed" type="Const" version="opset1">
			<data element_type="f16" shape="1, 1, 768" offset="1282670" size="1536" />
			<output>
				<port id="0" precision="FP16">
					<dim>1</dim>
					<dim>1</dim>
					<dim>768</dim>
				</port>
			</output>
		</layer>
		<layer id="70" name="Constant_15056" type="Convert" version="opset1">
			<data destination_type="f32" />
			<rt_info>
				<attribute name="decompression" version="0" />
			</rt_info>
			<input>
				<port id="0" precision="FP16">
					<dim>1</dim>
					<dim>1</dim>
					<dim>768</dim>
				</port>
			</input>
			<output>
				<port id="1" precision="FP32">
					<dim>1</dim>
					<dim>1</dim>
					<dim>768</dim>
				</port>
			</output>
		</layer>
		<layer id="71" name="__module.encoder.blocks.0.mlp.fc1/aten::linear/Add" type="Add" version="opset1">
			<data auto_broadcast="numpy" />
			<input>
				<port id="0" precision="FP32">
					<dim>2</dim>
					<dim>1025</dim>
					<dim>768</dim>
				</port>
				<port id="1" precision="FP32">
					<dim>1</dim>
					<dim>1</dim>
					<dim>768</dim>
				</port>
			</input>
			<output>
				<port id="2" precision="FP32" names="246,input.15">
					<dim>2</dim>
					<dim>1025</dim>
					<dim>768</dim>
				</port>
			</output>
		</layer>
		<layer id="72" name="__module.encoder.blocks.0.mlp.act/aten::gelu/Gelu" type="Gelu" version="opset7">
			<data approximation_mode="ERF" />
			<input>
				<port id="0" precision="FP32">
					<dim>2</dim>
					<dim>1025</dim>
					<dim>768</dim>
				</port>
			</input>
			<output>
				<port id="1" precision="FP32" names="247,input.17">
					<dim>2</dim>
					<dim>1025</dim>
					<dim>768</dim>
				</port>
			</output>
		</layer>
		<layer id="73" name="self.encoder.blocks.0.mlp.fc2.weight_compressed" type="Const" version="opset1">
			<data element_type="f16" shape="192, 768" offset="1284206" size="294912" />
			<output>
				<port id="0" precision="FP16" names="194,self.encoder.blocks.0.mlp.fc2.weight">
					<dim>192</dim>
					<dim>768</dim>
				</port>
			</output>
		</layer>
		<layer id="74" name="self.encoder.blocks.0.mlp.fc2.weight" type="Convert" version="opset1">
			<data destination_type="f32" />
			<rt_info>
				<attribute name="decompression" version="0" />
			</rt_info>
			<input>
				<port id="0" precision="FP16">
					<dim>192</dim>
					<dim>768</dim>
				</port>
			</input>
			<output>
				<port id="1" precision="FP32">
					<dim>192</dim>
					<dim>768</dim>
				</port>
			</output>
		</layer>
		<layer id="75" name="__module.encoder.blocks.0.mlp.fc2/aten::linear/MatMul_79" type="MatMul" version="opset1">
			<data transpose_a="false" transpose_b="true" />
			<input>
				<port id="0" precision="FP32">
					<dim>2</dim>
					<dim>1025</dim>
					<dim>768</dim>
				</port>
				<port id="1" precision="FP32">
					<dim>192</dim>
					<dim>768</dim>
				</port>
			</input>
			<output>
				<port id="2" precision="FP32">
					<dim>2</dim>
					<dim>1025</dim>
					<dim>192</dim>
				</port>
			</output>
		</layer>
		<layer id="76" name="Constant_15057_compressed" type="Const" version="opset1">
			<data element_type="f16" shape="1, 1, 192" offset="1579118" size="384" />
			<output>
				<port id="0" precision="FP16">
					<dim>1</dim>
					<dim>1</dim>
					<dim>192</dim>
				</port>
			</output>
		</layer>
		<layer id="77" name="Constant_15057" type="Convert" version="opset1">
			<data destination_type="f32" />
			<rt_info>
				<attribute name="decompression" version="0" />
			</rt_info>
			<input>
				<port id="0" precision="FP16">
					<dim>1</dim>
					<dim>1</dim>
					<dim>192</dim>
				</port>
			</input>
			<output>
				<port id="1" precision="FP32">
					<dim>1</dim>
					<dim>1</dim>
					<dim>192</dim>
				</port>
			</output>
		</layer>
		<layer id="78" name="__module.encoder.blocks.0.mlp.fc2/aten::linear/Add" type="Add" version="opset1">
			<data auto_broadcast="numpy" />
			<input>
				<port id="0" precision="FP32">
					<dim>2</dim>
					<dim>1025</dim>
					<dim>192</dim>
				</port>
				<port id="1" precision="FP32">
					<dim>1</dim>
					<dim>1</dim>
					<dim>192</dim>
				</port>
			</input>
			<output>
				<port id="2" precision="FP32" names="248,input.21">
					<dim>2</dim>
					<dim>1025</dim>
					<dim>192</dim>
				</port>
			</output>
		</layer>
		<layer id="79" name="__module.encoder.blocks.0/aten::add/Add_82" type="Add" version="opset1">
			<data auto_broadcast="numpy" />
			<input>
				<port id="0" precision="FP32">
					<dim>2</dim>
					<dim>1025</dim>
					<dim>192</dim>
				</port>
				<port id="1" precision="FP32">
					<dim>2</dim>
					<dim>1025</dim>
					<dim>192</dim>
				</port>
			</input>
			<output>
				<port id="2" precision="FP32" names="249,input.23">
					<dim>2</dim>
					<dim>1025</dim>
					<dim>192</dim>
				</port>
			</output>
		</layer>
		<layer id="80" name="__module.encoder.blocks.1.norm1/aten::layer_norm/Constant" type="Const" version="opset1">
			<data element_type="i32" shape="1" offset="689688" size="4" />
			<output>
				<port id="0" precision="I32">
					<dim>1</dim>
				</port>
			</output>
		</layer>
		<layer id="81" name="__module.encoder.blocks.1.norm1/aten::layer_norm/MVN" type="MVN" version="opset6">
			<data eps="9.9999997473787516e-06" normalize_variance="true" eps_mode="INSIDE_SQRT" />
			<input>
				<port id="0" precision="FP32">
					<dim>2</dim>
					<dim>1025</dim>
					<dim>192</dim>
				</port>
				<port id="1" precision="I32">
					<dim>1</dim>
				</port>
			</input>
			<output>
				<port id="2" precision="FP32">
					<dim>2</dim>
					<dim>1025</dim>
					<dim>192</dim>
				</port>
			</output>
		</layer>
		<layer id="82" name="Constant_15058_compressed" type="Const" version="opset1">
			<data element_type="f16" shape="1, 1, 192" offset="1579502" size="384" />
			<output>
				<port id="0" precision="FP16">
					<dim>1</dim>
					<dim>1</dim>
					<dim>192</dim>
				</port>
			</output>
		</layer>
		<layer id="83" name="Constant_15058" type="Convert" version="opset1">
			<data destination_type="f32" />
			<rt_info>
				<attribute name="decompression" version="0" />
			</rt_info>
			<input>
				<port id="0" precision="FP16">
					<dim>1</dim>
					<dim>1</dim>
					<dim>192</dim>
				</port>
			</input>
			<output>
				<port id="1" precision="FP32">
					<dim>1</dim>
					<dim>1</dim>
					<dim>192</dim>
				</port>
			</output>
		</layer>
		<layer id="84" name="__module.encoder.blocks.1.norm1/aten::layer_norm/Multiply" type="Multiply" version="opset1">
			<data auto_broadcast="numpy" />
			<input>
				<port id="0" precision="FP32">
					<dim>2</dim>
					<dim>1025</dim>
					<dim>192</dim>
				</port>
				<port id="1" precision="FP32">
					<dim>1</dim>
					<dim>1</dim>
					<dim>192</dim>
				</port>
			</input>
			<output>
				<port id="2" precision="FP32">
					<dim>2</dim>
					<dim>1025</dim>
					<dim>192</dim>
				</port>
			</output>
		</layer>
		<layer id="85" name="Constant_15059_compressed" type="Const" version="opset1">
			<data element_type="f16" shape="1, 1, 192" offset="1579886" size="384" />
			<output>
				<port id="0" precision="FP16">
					<dim>1</dim>
					<dim>1</dim>
					<dim>192</dim>
				</port>
			</output>
		</layer>
		<layer id="86" name="Constant_15059" type="Convert" version="opset1">
			<data destination_type="f32" />
			<rt_info>
				<attribute name="decompression" version="0" />
			</rt_info>
			<input>
				<port id="0" precision="FP16">
					<dim>1</dim>
					<dim>1</dim>
					<dim>192</dim>
				</port>
			</input>
			<output>
				<port id="1" precision="FP32">
					<dim>1</dim>
					<dim>1</dim>
					<dim>192</dim>
				</port>
			</output>
		</layer>
		<layer id="87" name="__module.encoder.blocks.1.norm1/aten::layer_norm/Add" type="Add" version="opset1">
			<data auto_broadcast="numpy" />
			<input>
				<port id="0" precision="FP32">
					<dim>2</dim>
					<dim>1025</dim>
					<dim>192</dim>
				</port>
				<port id="1" precision="FP32">
					<dim>1</dim>
					<dim>1</dim>
					<dim>192</dim>
				</port>
			</input>
			<output>
				<port id="2" precision="FP32" names="250,x.7">
					<dim>2</dim>
					<dim>1025</dim>
					<dim>192</dim>
				</port>
			</output>
		</layer>
		<layer id="88" name="self.encoder.blocks.1.attn.qkv.weight_compressed" type="Const" version="opset1">
			<data element_type="f16" shape="576, 192" offset="1580270" size="221184" />
			<output>
				<port id="0" precision="FP16" names="190,self.encoder.blocks.1.attn.qkv.weight">
					<dim>576</dim>
					<dim>192</dim>
				</port>
			</output>
		</layer>
		<layer id="89" name="self.encoder.blocks.1.attn.qkv.weight" type="Convert" version="opset1">
			<data destination_type="f32" />
			<rt_info>
				<attribute name="decompression" version="0" />
			</rt_info>
			<input>
				<port id="0" precision="FP16">
					<dim>576</dim>
					<dim>192</dim>
				</port>
			</input>
			<output>
				<port id="1" precision="FP32">
					<dim>576</dim>
					<dim>192</dim>
				</port>
			</output>
		</layer>
		<layer id="90" name="__module.encoder.blocks.1.attn.qkv/aten::linear/MatMul_89" type="MatMul" version="opset1">
			<data transpose_a="false" transpose_b="true" />
			<input>
				<port id="0" precision="FP32">
					<dim>2</dim>
					<dim>1025</dim>
					<dim>192</dim>
				</port>
				<port id="1" precision="FP32">
					<dim>576</dim>
					<dim>192</dim>
				</port>
			</input>
			<output>
				<port id="2" precision="FP32">
					<dim>2</dim>
					<dim>1025</dim>
					<dim>576</dim>
				</port>
			</output>
		</layer>
		<layer id="91" name="Constant_15060_compressed" type="Const" version="opset1">
			<data element_type="f16" shape="1, 1, 576" offset="1801454" size="1152" />
			<output>
				<port id="0" precision="FP16">
					<dim>1</dim>
					<dim>1</dim>
					<dim>576</dim>
				</port>
			</output>
		</layer>
		<layer id="92" name="Constant_15060" type="Convert" version="opset1">
			<data destination_type="f32" />
			<rt_info>
				<attribute name="decompression" version="0" />
			</rt_info>
			<input>
				<port id="0" precision="FP16">
					<dim>1</dim>
					<dim>1</dim>
					<dim>576</dim>
				</port>
			</input>
			<output>
				<port id="1" precision="FP32">
					<dim>1</dim>
					<dim>1</dim>
					<dim>576</dim>
				</port>
			</output>
		</layer>
		<layer id="93" name="__module.encoder.blocks.1.attn.qkv/aten::linear/Add" type="Add" version="opset1">
			<data auto_broadcast="numpy" />
			<input>
				<port id="0" precision="FP32">
					<dim>2</dim>
					<dim>1025</dim>
					<dim>576</dim>
				</port>
				<port id="1" precision="FP32">
					<dim>1</dim>
					<dim>1</dim>
					<dim>576</dim>
				</port>
			</input>
			<output>
				<port id="2" precision="FP32" names="255">
					<dim>2</dim>
					<dim>1025</dim>
					<dim>576</dim>
				</port>
			</output>
		</layer>
		<layer id="94" name="__module.encoder.blocks.1.attn/aten::size/ShapeOf_86" type="ShapeOf" version="opset3">
			<data output_type="i32" />
			<input>
				<port id="0" precision="FP32">
					<dim>2</dim>
					<dim>1025</dim>
					<dim>192</dim>
				</port>
			</input>
			<output>
				<port id="1" precision="I32">
					<dim>3</dim>
				</port>
			</output>
		</layer>
		<layer id="95" name="Constant_12863" type="Const" version="opset1">
			<data element_type="i32" shape="2" offset="1802606" size="8" />
			<output>
				<port id="0" precision="I32">
					<dim>2</dim>
				</port>
			</output>
		</layer>
		<layer id="96" name="Constant_12864" type="Const" version="opset1">
			<data element_type="i64" shape="" offset="1802614" size="8" />
			<output>
				<port id="0" precision="I64" />
			</output>
		</layer>
		<layer id="97" name="Gather_12865" type="Gather" version="opset8">
			<data batch_dims="0" />
			<input>
				<port id="0" precision="I32">
					<dim>3</dim>
				</port>
				<port id="1" precision="I32">
					<dim>2</dim>
				</port>
				<port id="2" precision="I64" />
			</input>
			<output>
				<port id="3" precision="I32">
					<dim>2</dim>
				</port>
			</output>
		</layer>
		<layer id="98" name="__module.encoder.blocks.1.attn/prim::ListConstruct_90/Reshape_1" type="Const" version="opset1">
			<data element_type="i32" shape="1" offset="1802622" size="4" />
			<output>
				<port id="0" precision="I32">
					<dim>1</dim>
				</port>
			</output>
		</layer>
		<layer id="99" name="__module.encoder.blocks.1.attn/prim::ListConstruct_90/Reshape_2" type="Const" version="opset1">
			<data element_type="i32" shape="1" offset="1802622" size="4" />
			<output>
				<port id="0" precision="I32">
					<dim>1</dim>
				</port>
			</output>
		</layer>
		<layer id="100" name="__module.encoder.blocks.1.attn/aten::size/Constant_87" type="Const" version="opset1">
			<data element_type="i32" shape="" offset="912836" size="4" />
			<output>
				<port id="0" precision="I32" />
			</output>
		</layer>
		<layer id="101" name="__module.encoder.blocks.1.attn/aten::size/Gather_88" type="Gather" version="opset8">
			<data batch_dims="0" />
			<input>
				<port id="0" precision="I32">
					<dim>3</dim>
				</port>
				<port id="1" precision="I32" />
				<port id="2" precision="I32" />
			</input>
			<output>
				<port id="3" precision="I32" names="253" />
			</output>
		</layer>
		<layer id="102" name="20" type="Const" version="opset1">
			<data element_type="i32" shape="" offset="1802622" size="4" />
			<output>
				<port id="0" precision="I32" names="20" />
			</output>
		</layer>
		<layer id="103" name="__module.encoder.blocks.1.attn/aten::floor_divide/Divide" type="Divide" version="opset1">
			<data auto_broadcast="numpy" m_pythondiv="true" />
			<input>
				<port id="0" precision="I32" />
				<port id="1" precision="I32" />
			</input>
			<output>
				<port id="2" precision="I32" />
			</output>
		</layer>
		<layer id="104" name="__module.encoder.blocks.1.attn/aten::floor_divide/Floor" type="Floor" version="opset1">
			<input>
				<port id="0" precision="I32" />
			</input>
			<output>
				<port id="1" precision="I32" names="256,257" />
			</output>
		</layer>
		<layer id="105" name="Constant_6197" type="Const" version="opset1">
			<data element_type="i64" shape="1" offset="1802626" size="8" />
			<output>
				<port id="0" precision="I64">
					<dim>1</dim>
				</port>
			</output>
		</layer>
		<layer id="106" name="__module.encoder.blocks.1.attn/prim::ListConstruct_90/Reshape_3" type="Reshape" version="opset1">
			<data special_zero="false" />
			<input>
				<port id="0" precision="I32" />
				<port id="1" precision="I64">
					<dim>1</dim>
				</port>
			</input>
			<output>
				<port id="2" precision="I32">
					<dim>1</dim>
				</port>
			</output>
		</layer>
		<layer id="107" name="__module.encoder.blocks.1.attn/prim::ListConstruct_90/Concat" type="Concat" version="opset1">
			<data axis="0" />
			<input>
				<port id="0" precision="I32">
					<dim>2</dim>
				</port>
				<port id="1" precision="I32">
					<dim>1</dim>
				</port>
				<port id="2" precision="I32">
					<dim>1</dim>
				</port>
				<port id="3" precision="I32">
					<dim>1</dim>
				</port>
			</input>
			<output>
				<port id="4" precision="I32" names="258">
					<dim>5</dim>
				</port>
			</output>
		</layer>
		<layer id="108" name="__module.encoder.blocks.1.attn/aten::reshape/Reshape" type="Reshape" version="opset1">
			<data special_zero="false" />
			<input>
				<port id="0" precision="FP32">
					<dim>2</dim>
					<dim>1025</dim>
					<dim>576</dim>
				</port>
				<port id="1" precision="I32">
					<dim>5</dim>
				</port>
			</input>
			<output>
				<port id="2" precision="FP32" names="259">
					<dim>2</dim>
					<dim>1025</dim>
					<dim>3</dim>
					<dim>3</dim>
					<dim>64</dim>
				</port>
			</output>
		</layer>
		<layer id="109" name="__module.encoder.blocks.1.attn/aten::permute/Transpose" type="Transpose" version="opset1">
			<input>
				<port id="0" precision="FP32">
					<dim>2</dim>
					<dim>1025</dim>
					<dim>3</dim>
					<dim>3</dim>
					<dim>64</dim>
				</port>
				<port id="1" precision="I32">
					<dim>5</dim>
				</port>
			</input>
			<output>
				<port id="2" precision="FP32" names="260,qkv.3">
					<dim>3</dim>
					<dim>2</dim>
					<dim>3</dim>
					<dim>1025</dim>
					<dim>64</dim>
				</port>
			</output>
		</layer>
		<layer id="110" name="__module.encoder.blocks.1.attn/aten::select/Gather" type="Gather" version="opset8">
			<data batch_dims="0" />
			<input>
				<port id="0" precision="FP32">
					<dim>3</dim>
					<dim>2</dim>
					<dim>3</dim>
					<dim>1025</dim>
					<dim>64</dim>
				</port>
				<port id="1" precision="I32" />
				<port id="2" precision="I32" />
			</input>
			<output>
				<port id="3" precision="FP32" names="261,q.3">
					<dim>2</dim>
					<dim>3</dim>
					<dim>1025</dim>
					<dim>64</dim>
				</port>
			</output>
		</layer>
		<layer id="111" name="__module.encoder.blocks.1.attn/aten::select/Gather_91" type="Gather" version="opset8">
			<data batch_dims="0" />
			<input>
				<port id="0" precision="FP32">
					<dim>3</dim>
					<dim>2</dim>
					<dim>3</dim>
					<dim>1025</dim>
					<dim>64</dim>
				</port>
				<port id="1" precision="I32" />
				<port id="2" precision="I32" />
			</input>
			<output>
				<port id="3" precision="FP32" names="262,k.3">
					<dim>2</dim>
					<dim>3</dim>
					<dim>1025</dim>
					<dim>64</dim>
				</port>
			</output>
		</layer>
		<layer id="112" name="Constant_15061_compressed" type="Const" version="opset1">
			<data element_type="f16" shape="1, 1, 1, 1" offset="1802634" size="2" />
			<output>
				<port id="0" precision="FP16">
					<dim>1</dim>
					<dim>1</dim>
					<dim>1</dim>
					<dim>1</dim>
				</port>
			</output>
		</layer>
		<layer id="113" name="Constant_15061" type="Convert" version="opset1">
			<data destination_type="f32" />
			<rt_info>
				<attribute name="decompression" version="0" />
			</rt_info>
			<input>
				<port id="0" precision="FP16">
					<dim>1</dim>
					<dim>1</dim>
					<dim>1</dim>
					<dim>1</dim>
				</port>
			</input>
			<output>
				<port id="1" precision="FP32">
					<dim>1</dim>
					<dim>1</dim>
					<dim>1</dim>
					<dim>1</dim>
				</port>
			</output>
		</layer>
		<layer id="114" name="Multiply_14805" type="Multiply" version="opset1">
			<data auto_broadcast="numpy" />
			<input>
				<port id="0" precision="FP32">
					<dim>2</dim>
					<dim>3</dim>
					<dim>1025</dim>
					<dim>64</dim>
				</port>
				<port id="1" precision="FP32">
					<dim>1</dim>
					<dim>1</dim>
					<dim>1</dim>
					<dim>1</dim>
				</port>
			</input>
			<output>
				<port id="2" precision="FP32">
					<dim>2</dim>
					<dim>3</dim>
					<dim>1025</dim>
					<dim>64</dim>
				</port>
			</output>
		</layer>
		<layer id="115" name="__module.encoder.blocks.1.attn/aten::mul/Multiply" type="MatMul" version="opset1">
			<data transpose_a="false" transpose_b="true" />
			<input>
				<port id="0" precision="FP32">
					<dim>2</dim>
					<dim>3</dim>
					<dim>1025</dim>
					<dim>64</dim>
				</port>
				<port id="1" precision="FP32">
					<dim>2</dim>
					<dim>3</dim>
					<dim>1025</dim>
					<dim>64</dim>
				</port>
			</input>
			<output>
				<port id="2" precision="FP32" names="266,attn.5">
					<dim>2</dim>
					<dim>3</dim>
					<dim>1025</dim>
					<dim>1025</dim>
				</port>
			</output>
		</layer>
		<layer id="116" name="__module.encoder.blocks.1.attn/aten::softmax/Softmax" type="SoftMax" version="opset8">
			<data axis="-1" />
			<input>
				<port id="0" precision="FP32">
					<dim>2</dim>
					<dim>3</dim>
					<dim>1025</dim>
					<dim>1025</dim>
				</port>
			</input>
			<output>
				<port id="1" precision="FP32" names="267,input.25">
					<dim>2</dim>
					<dim>3</dim>
					<dim>1025</dim>
					<dim>1025</dim>
				</port>
			</output>
		</layer>
		<layer id="117" name="__module.encoder.blocks.1.attn/aten::select/Gather_92" type="Gather" version="opset8">
			<data batch_dims="0" />
			<input>
				<port id="0" precision="FP32">
					<dim>3</dim>
					<dim>2</dim>
					<dim>3</dim>
					<dim>1025</dim>
					<dim>64</dim>
				</port>
				<port id="1" precision="I32" />
				<port id="2" precision="I32" />
			</input>
			<output>
				<port id="3" precision="FP32" names="263,v.3">
					<dim>2</dim>
					<dim>3</dim>
					<dim>1025</dim>
					<dim>64</dim>
				</port>
			</output>
		</layer>
		<layer id="118" name="__module.encoder.blocks.1.attn/aten::matmul/MatMul_102" type="MatMul" version="opset1">
			<data transpose_a="false" transpose_b="false" />
			<input>
				<port id="0" precision="FP32">
					<dim>2</dim>
					<dim>3</dim>
					<dim>1025</dim>
					<dim>1025</dim>
				</port>
				<port id="1" precision="FP32">
					<dim>2</dim>
					<dim>3</dim>
					<dim>1025</dim>
					<dim>64</dim>
				</port>
			</input>
			<output>
				<port id="2" precision="FP32" names="268">
					<dim>2</dim>
					<dim>3</dim>
					<dim>1025</dim>
					<dim>64</dim>
				</port>
			</output>
		</layer>
		<layer id="119" name="__module.encoder.blocks.1.attn/aten::transpose/ScatterElementsUpdate_121" type="Const" version="opset1">
			<data element_type="i32" shape="4" offset="912850" size="16" />
			<output>
				<port id="0" precision="I32">
					<dim>4</dim>
				</port>
			</output>
		</layer>
		<layer id="120" name="__module.encoder.blocks.1.attn/aten::transpose/Transpose_122" type="Transpose" version="opset1">
			<input>
				<port id="0" precision="FP32">
					<dim>2</dim>
					<dim>3</dim>
					<dim>1025</dim>
					<dim>64</dim>
				</port>
				<port id="1" precision="I32">
					<dim>4</dim>
				</port>
			</input>
			<output>
				<port id="2" precision="FP32" names="269">
					<dim>2</dim>
					<dim>1025</dim>
					<dim>3</dim>
					<dim>64</dim>
				</port>
			</output>
		</layer>
		<layer id="121" name="Constant_6200" type="Const" version="opset1">
			<data element_type="i64" shape="1" offset="1802626" size="8" />
			<output>
				<port id="0" precision="I64">
					<dim>1</dim>
				</port>
			</output>
		</layer>
		<layer id="122" name="__module.encoder.blocks.1.attn/prim::ListConstruct_125/Reshape_1" type="Reshape" version="opset1">
			<data special_zero="false" />
			<input>
				<port id="0" precision="I32" />
				<port id="1" precision="I64">
					<dim>1</dim>
				</port>
			</input>
			<output>
				<port id="2" precision="I32">
					<dim>1</dim>
				</port>
			</output>
		</layer>
		<layer id="123" name="__module.encoder.blocks.1.attn/prim::ListConstruct_125/Concat" type="Concat" version="opset1">
			<data axis="0" />
			<input>
				<port id="0" precision="I32">
					<dim>2</dim>
				</port>
				<port id="1" precision="I32">
					<dim>1</dim>
				</port>
			</input>
			<output>
				<port id="2" precision="I32" names="270">
					<dim>3</dim>
				</port>
			</output>
		</layer>
		<layer id="124" name="__module.encoder.blocks.1.attn/aten::reshape/Reshape_126" type="Reshape" version="opset1">
			<data special_zero="false" />
			<input>
				<port id="0" precision="FP32">
					<dim>2</dim>
					<dim>1025</dim>
					<dim>3</dim>
					<dim>64</dim>
				</port>
				<port id="1" precision="I32">
					<dim>3</dim>
				</port>
			</input>
			<output>
				<port id="2" precision="FP32" names="271,input.27">
					<dim>2</dim>
					<dim>1025</dim>
					<dim>192</dim>
				</port>
			</output>
		</layer>
		<layer id="125" name="self.encoder.blocks.1.attn.proj.weight_compressed" type="Const" version="opset1">
			<data element_type="f16" shape="192, 192" offset="1802636" size="73728" />
			<output>
				<port id="0" precision="FP16" names="188,self.encoder.blocks.1.attn.proj.weight">
					<dim>192</dim>
					<dim>192</dim>
				</port>
			</output>
		</layer>
		<layer id="126" name="self.encoder.blocks.1.attn.proj.weight" type="Convert" version="opset1">
			<data destination_type="f32" />
			<rt_info>
				<attribute name="decompression" version="0" />
			</rt_info>
			<input>
				<port id="0" precision="FP16">
					<dim>192</dim>
					<dim>192</dim>
				</port>
			</input>
			<output>
				<port id="1" precision="FP32">
					<dim>192</dim>
					<dim>192</dim>
				</port>
			</output>
		</layer>
		<layer id="127" name="__module.encoder.blocks.1.attn.proj/aten::linear/MatMul_127" type="MatMul" version="opset1">
			<data transpose_a="false" transpose_b="true" />
			<input>
				<port id="0" precision="FP32">
					<dim>2</dim>
					<dim>1025</dim>
					<dim>192</dim>
				</port>
				<port id="1" precision="FP32">
					<dim>192</dim>
					<dim>192</dim>
				</port>
			</input>
			<output>
				<port id="2" precision="FP32">
					<dim>2</dim>
					<dim>1025</dim>
					<dim>192</dim>
				</port>
			</output>
		</layer>
		<layer id="128" name="Constant_15062_compressed" type="Const" version="opset1">
			<data element_type="f16" shape="1, 1, 192" offset="1876364" size="384" />
			<output>
				<port id="0" precision="FP16">
					<dim>1</dim>
					<dim>1</dim>
					<dim>192</dim>
				</port>
			</output>
		</layer>
		<layer id="129" name="Constant_15062" type="Convert" version="opset1">
			<data destination_type="f32" />
			<rt_info>
				<attribute name="decompression" version="0" />
			</rt_info>
			<input>
				<port id="0" precision="FP16">
					<dim>1</dim>
					<dim>1</dim>
					<dim>192</dim>
				</port>
			</input>
			<output>
				<port id="1" precision="FP32">
					<dim>1</dim>
					<dim>1</dim>
					<dim>192</dim>
				</port>
			</output>
		</layer>
		<layer id="130" name="__module.encoder.blocks.1.attn.proj/aten::linear/Add" type="Add" version="opset1">
			<data auto_broadcast="numpy" />
			<input>
				<port id="0" precision="FP32">
					<dim>2</dim>
					<dim>1025</dim>
					<dim>192</dim>
				</port>
				<port id="1" precision="FP32">
					<dim>1</dim>
					<dim>1</dim>
					<dim>192</dim>
				</port>
			</input>
			<output>
				<port id="2" precision="FP32" names="272,input.29">
					<dim>2</dim>
					<dim>1025</dim>
					<dim>192</dim>
				</port>
			</output>
		</layer>
		<layer id="131" name="__module.encoder.blocks.1/aten::add/Add" type="Add" version="opset1">
			<data auto_broadcast="numpy" />
			<input>
				<port id="0" precision="FP32">
					<dim>2</dim>
					<dim>1025</dim>
					<dim>192</dim>
				</port>
				<port id="1" precision="FP32">
					<dim>2</dim>
					<dim>1025</dim>
					<dim>192</dim>
				</port>
			</input>
			<output>
				<port id="2" precision="FP32" names="273,input.31">
					<dim>2</dim>
					<dim>1025</dim>
					<dim>192</dim>
				</port>
			</output>
		</layer>
		<layer id="132" name="__module.encoder.blocks.1.norm2/aten::layer_norm/Constant" type="Const" version="opset1">
			<data element_type="i32" shape="1" offset="689688" size="4" />
			<output>
				<port id="0" precision="I32">
					<dim>1</dim>
				</port>
			</output>
		</layer>
		<layer id="133" name="__module.encoder.blocks.1.norm2/aten::layer_norm/MVN" type="MVN" version="opset6">
			<data eps="9.9999997473787516e-06" normalize_variance="true" eps_mode="INSIDE_SQRT" />
			<input>
				<port id="0" precision="FP32">
					<dim>2</dim>
					<dim>1025</dim>
					<dim>192</dim>
				</port>
				<port id="1" precision="I32">
					<dim>1</dim>
				</port>
			</input>
			<output>
				<port id="2" precision="FP32">
					<dim>2</dim>
					<dim>1025</dim>
					<dim>192</dim>
				</port>
			</output>
		</layer>
		<layer id="134" name="Constant_15063_compressed" type="Const" version="opset1">
			<data element_type="f16" shape="1, 1, 192" offset="1876748" size="384" />
			<output>
				<port id="0" precision="FP16">
					<dim>1</dim>
					<dim>1</dim>
					<dim>192</dim>
				</port>
			</output>
		</layer>
		<layer id="135" name="Constant_15063" type="Convert" version="opset1">
			<data destination_type="f32" />
			<rt_info>
				<attribute name="decompression" version="0" />
			</rt_info>
			<input>
				<port id="0" precision="FP16">
					<dim>1</dim>
					<dim>1</dim>
					<dim>192</dim>
				</port>
			</input>
			<output>
				<port id="1" precision="FP32">
					<dim>1</dim>
					<dim>1</dim>
					<dim>192</dim>
				</port>
			</output>
		</layer>
		<layer id="136" name="__module.encoder.blocks.1.norm2/aten::layer_norm/Multiply" type="Multiply" version="opset1">
			<data auto_broadcast="numpy" />
			<input>
				<port id="0" precision="FP32">
					<dim>2</dim>
					<dim>1025</dim>
					<dim>192</dim>
				</port>
				<port id="1" precision="FP32">
					<dim>1</dim>
					<dim>1</dim>
					<dim>192</dim>
				</port>
			</input>
			<output>
				<port id="2" precision="FP32">
					<dim>2</dim>
					<dim>1025</dim>
					<dim>192</dim>
				</port>
			</output>
		</layer>
		<layer id="137" name="Constant_15064_compressed" type="Const" version="opset1">
			<data element_type="f16" shape="1, 1, 192" offset="1877132" size="384" />
			<output>
				<port id="0" precision="FP16">
					<dim>1</dim>
					<dim>1</dim>
					<dim>192</dim>
				</port>
			</output>
		</layer>
		<layer id="138" name="Constant_15064" type="Convert" version="opset1">
			<data destination_type="f32" />
			<rt_info>
				<attribute name="decompression" version="0" />
			</rt_info>
			<input>
				<port id="0" precision="FP16">
					<dim>1</dim>
					<dim>1</dim>
					<dim>192</dim>
				</port>
			</input>
			<output>
				<port id="1" precision="FP32">
					<dim>1</dim>
					<dim>1</dim>
					<dim>192</dim>
				</port>
			</output>
		</layer>
		<layer id="139" name="__module.encoder.blocks.1.norm2/aten::layer_norm/Add" type="Add" version="opset1">
			<data auto_broadcast="numpy" />
			<input>
				<port id="0" precision="FP32">
					<dim>2</dim>
					<dim>1025</dim>
					<dim>192</dim>
				</port>
				<port id="1" precision="FP32">
					<dim>1</dim>
					<dim>1</dim>
					<dim>192</dim>
				</port>
			</input>
			<output>
				<port id="2" precision="FP32" names="274,input.33">
					<dim>2</dim>
					<dim>1025</dim>
					<dim>192</dim>
				</port>
			</output>
		</layer>
		<layer id="140" name="self.encoder.blocks.1.mlp.fc1.weight_compressed" type="Const" version="opset1">
			<data element_type="f16" shape="768, 192" offset="1877516" size="294912" />
			<output>
				<port id="0" precision="FP16" names="184,self.encoder.blocks.1.mlp.fc1.weight">
					<dim>768</dim>
					<dim>192</dim>
				</port>
			</output>
		</layer>
		<layer id="141" name="self.encoder.blocks.1.mlp.fc1.weight" type="Convert" version="opset1">
			<data destination_type="f32" />
			<rt_info>
				<attribute name="decompression" version="0" />
			</rt_info>
			<input>
				<port id="0" precision="FP16">
					<dim>768</dim>
					<dim>192</dim>
				</port>
			</input>
			<output>
				<port id="1" precision="FP32">
					<dim>768</dim>
					<dim>192</dim>
				</port>
			</output>
		</layer>
		<layer id="142" name="__module.encoder.blocks.1.mlp.fc1/aten::linear/MatMul_128" type="MatMul" version="opset1">
			<data transpose_a="false" transpose_b="true" />
			<input>
				<port id="0" precision="FP32">
					<dim>2</dim>
					<dim>1025</dim>
					<dim>192</dim>
				</port>
				<port id="1" precision="FP32">
					<dim>768</dim>
					<dim>192</dim>
				</port>
			</input>
			<output>
				<port id="2" precision="FP32">
					<dim>2</dim>
					<dim>1025</dim>
					<dim>768</dim>
				</port>
			</output>
		</layer>
		<layer id="143" name="Constant_15065_compressed" type="Const" version="opset1">
			<data element_type="f16" shape="1, 1, 768" offset="2172428" size="1536" />
			<output>
				<port id="0" precision="FP16">
					<dim>1</dim>
					<dim>1</dim>
					<dim>768</dim>
				</port>
			</output>
		</layer>
		<layer id="144" name="Constant_15065" type="Convert" version="opset1">
			<data destination_type="f32" />
			<rt_info>
				<attribute name="decompression" version="0" />
			</rt_info>
			<input>
				<port id="0" precision="FP16">
					<dim>1</dim>
					<dim>1</dim>
					<dim>768</dim>
				</port>
			</input>
			<output>
				<port id="1" precision="FP32">
					<dim>1</dim>
					<dim>1</dim>
					<dim>768</dim>
				</port>
			</output>
		</layer>
		<layer id="145" name="__module.encoder.blocks.1.mlp.fc1/aten::linear/Add" type="Add" version="opset1">
			<data auto_broadcast="numpy" />
			<input>
				<port id="0" precision="FP32">
					<dim>2</dim>
					<dim>1025</dim>
					<dim>768</dim>
				</port>
				<port id="1" precision="FP32">
					<dim>1</dim>
					<dim>1</dim>
					<dim>768</dim>
				</port>
			</input>
			<output>
				<port id="2" precision="FP32" names="275,input.35">
					<dim>2</dim>
					<dim>1025</dim>
					<dim>768</dim>
				</port>
			</output>
		</layer>
		<layer id="146" name="__module.encoder.blocks.1.mlp.act/aten::gelu/Gelu" type="Gelu" version="opset7">
			<data approximation_mode="ERF" />
			<input>
				<port id="0" precision="FP32">
					<dim>2</dim>
					<dim>1025</dim>
					<dim>768</dim>
				</port>
			</input>
			<output>
				<port id="1" precision="FP32" names="276,input.37">
					<dim>2</dim>
					<dim>1025</dim>
					<dim>768</dim>
				</port>
			</output>
		</layer>
		<layer id="147" name="self.encoder.blocks.1.mlp.fc2.weight_compressed" type="Const" version="opset1">
			<data element_type="f16" shape="192, 768" offset="2173964" size="294912" />
			<output>
				<port id="0" precision="FP16" names="182,self.encoder.blocks.1.mlp.fc2.weight">
					<dim>192</dim>
					<dim>768</dim>
				</port>
			</output>
		</layer>
		<layer id="148" name="self.encoder.blocks.1.mlp.fc2.weight" type="Convert" version="opset1">
			<data destination_type="f32" />
			<rt_info>
				<attribute name="decompression" version="0" />
			</rt_info>
			<input>
				<port id="0" precision="FP16">
					<dim>192</dim>
					<dim>768</dim>
				</port>
			</input>
			<output>
				<port id="1" precision="FP32">
					<dim>192</dim>
					<dim>768</dim>
				</port>
			</output>
		</layer>
		<layer id="149" name="__module.encoder.blocks.1.mlp.fc2/aten::linear/MatMul_129" type="MatMul" version="opset1">
			<data transpose_a="false" transpose_b="true" />
			<input>
				<port id="0" precision="FP32">
					<dim>2</dim>
					<dim>1025</dim>
					<dim>768</dim>
				</port>
				<port id="1" precision="FP32">
					<dim>192</dim>
					<dim>768</dim>
				</port>
			</input>
			<output>
				<port id="2" precision="FP32">
					<dim>2</dim>
					<dim>1025</dim>
					<dim>192</dim>
				</port>
			</output>
		</layer>
		<layer id="150" name="Constant_15066_compressed" type="Const" version="opset1">
			<data element_type="f16" shape="1, 1, 192" offset="2468876" size="384" />
			<output>
				<port id="0" precision="FP16">
					<dim>1</dim>
					<dim>1</dim>
					<dim>192</dim>
				</port>
			</output>
		</layer>
		<layer id="151" name="Constant_15066" type="Convert" version="opset1">
			<data destination_type="f32" />
			<rt_info>
				<attribute name="decompression" version="0" />
			</rt_info>
			<input>
				<port id="0" precision="FP16">
					<dim>1</dim>
					<dim>1</dim>
					<dim>192</dim>
				</port>
			</input>
			<output>
				<port id="1" precision="FP32">
					<dim>1</dim>
					<dim>1</dim>
					<dim>192</dim>
				</port>
			</output>
		</layer>
		<layer id="152" name="__module.encoder.blocks.1.mlp.fc2/aten::linear/Add" type="Add" version="opset1">
			<data auto_broadcast="numpy" />
			<input>
				<port id="0" precision="FP32">
					<dim>2</dim>
					<dim>1025</dim>
					<dim>192</dim>
				</port>
				<port id="1" precision="FP32">
					<dim>1</dim>
					<dim>1</dim>
					<dim>192</dim>
				</port>
			</input>
			<output>
				<port id="2" precision="FP32" names="277,input.41">
					<dim>2</dim>
					<dim>1025</dim>
					<dim>192</dim>
				</port>
			</output>
		</layer>
		<layer id="153" name="__module.encoder.blocks.1/aten::add/Add_132" type="Add" version="opset1">
			<data auto_broadcast="numpy" />
			<input>
				<port id="0" precision="FP32">
					<dim>2</dim>
					<dim>1025</dim>
					<dim>192</dim>
				</port>
				<port id="1" precision="FP32">
					<dim>2</dim>
					<dim>1025</dim>
					<dim>192</dim>
				</port>
			</input>
			<output>
				<port id="2" precision="FP32" names="278,input.43">
					<dim>2</dim>
					<dim>1025</dim>
					<dim>192</dim>
				</port>
			</output>
		</layer>
		<layer id="154" name="__module.encoder.blocks.2.norm1/aten::layer_norm/Constant" type="Const" version="opset1">
			<data element_type="i32" shape="1" offset="689688" size="4" />
			<output>
				<port id="0" precision="I32">
					<dim>1</dim>
				</port>
			</output>
		</layer>
		<layer id="155" name="__module.encoder.blocks.2.norm1/aten::layer_norm/MVN" type="MVN" version="opset6">
			<data eps="9.9999997473787516e-06" normalize_variance="true" eps_mode="INSIDE_SQRT" />
			<input>
				<port id="0" precision="FP32">
					<dim>2</dim>
					<dim>1025</dim>
					<dim>192</dim>
				</port>
				<port id="1" precision="I32">
					<dim>1</dim>
				</port>
			</input>
			<output>
				<port id="2" precision="FP32">
					<dim>2</dim>
					<dim>1025</dim>
					<dim>192</dim>
				</port>
			</output>
		</layer>
		<layer id="156" name="Constant_15067_compressed" type="Const" version="opset1">
			<data element_type="f16" shape="1, 1, 192" offset="2469260" size="384" />
			<output>
				<port id="0" precision="FP16">
					<dim>1</dim>
					<dim>1</dim>
					<dim>192</dim>
				</port>
			</output>
		</layer>
		<layer id="157" name="Constant_15067" type="Convert" version="opset1">
			<data destination_type="f32" />
			<rt_info>
				<attribute name="decompression" version="0" />
			</rt_info>
			<input>
				<port id="0" precision="FP16">
					<dim>1</dim>
					<dim>1</dim>
					<dim>192</dim>
				</port>
			</input>
			<output>
				<port id="1" precision="FP32">
					<dim>1</dim>
					<dim>1</dim>
					<dim>192</dim>
				</port>
			</output>
		</layer>
		<layer id="158" name="__module.encoder.blocks.2.norm1/aten::layer_norm/Multiply" type="Multiply" version="opset1">
			<data auto_broadcast="numpy" />
			<input>
				<port id="0" precision="FP32">
					<dim>2</dim>
					<dim>1025</dim>
					<dim>192</dim>
				</port>
				<port id="1" precision="FP32">
					<dim>1</dim>
					<dim>1</dim>
					<dim>192</dim>
				</port>
			</input>
			<output>
				<port id="2" precision="FP32">
					<dim>2</dim>
					<dim>1025</dim>
					<dim>192</dim>
				</port>
			</output>
		</layer>
		<layer id="159" name="Constant_15068_compressed" type="Const" version="opset1">
			<data element_type="f16" shape="1, 1, 192" offset="2469644" size="384" />
			<output>
				<port id="0" precision="FP16">
					<dim>1</dim>
					<dim>1</dim>
					<dim>192</dim>
				</port>
			</output>
		</layer>
		<layer id="160" name="Constant_15068" type="Convert" version="opset1">
			<data destination_type="f32" />
			<rt_info>
				<attribute name="decompression" version="0" />
			</rt_info>
			<input>
				<port id="0" precision="FP16">
					<dim>1</dim>
					<dim>1</dim>
					<dim>192</dim>
				</port>
			</input>
			<output>
				<port id="1" precision="FP32">
					<dim>1</dim>
					<dim>1</dim>
					<dim>192</dim>
				</port>
			</output>
		</layer>
		<layer id="161" name="__module.encoder.blocks.2.norm1/aten::layer_norm/Add" type="Add" version="opset1">
			<data auto_broadcast="numpy" />
			<input>
				<port id="0" precision="FP32">
					<dim>2</dim>
					<dim>1025</dim>
					<dim>192</dim>
				</port>
				<port id="1" precision="FP32">
					<dim>1</dim>
					<dim>1</dim>
					<dim>192</dim>
				</port>
			</input>
			<output>
				<port id="2" precision="FP32" names="279,x.9">
					<dim>2</dim>
					<dim>1025</dim>
					<dim>192</dim>
				</port>
			</output>
		</layer>
		<layer id="162" name="self.encoder.blocks.2.attn.qkv.weight_compressed" type="Const" version="opset1">
			<data element_type="f16" shape="576, 192" offset="2470028" size="221184" />
			<output>
				<port id="0" precision="FP16" names="178,self.encoder.blocks.2.attn.qkv.weight">
					<dim>576</dim>
					<dim>192</dim>
				</port>
			</output>
		</layer>
		<layer id="163" name="self.encoder.blocks.2.attn.qkv.weight" type="Convert" version="opset1">
			<data destination_type="f32" />
			<rt_info>
				<attribute name="decompression" version="0" />
			</rt_info>
			<input>
				<port id="0" precision="FP16">
					<dim>576</dim>
					<dim>192</dim>
				</port>
			</input>
			<output>
				<port id="1" precision="FP32">
					<dim>576</dim>
					<dim>192</dim>
				</port>
			</output>
		</layer>
		<layer id="164" name="__module.encoder.blocks.2.attn.qkv/aten::linear/MatMul_139" type="MatMul" version="opset1">
			<data transpose_a="false" transpose_b="true" />
			<input>
				<port id="0" precision="FP32">
					<dim>2</dim>
					<dim>1025</dim>
					<dim>192</dim>
				</port>
				<port id="1" precision="FP32">
					<dim>576</dim>
					<dim>192</dim>
				</port>
			</input>
			<output>
				<port id="2" precision="FP32">
					<dim>2</dim>
					<dim>1025</dim>
					<dim>576</dim>
				</port>
			</output>
		</layer>
		<layer id="165" name="Constant_15069_compressed" type="Const" version="opset1">
			<data element_type="f16" shape="1, 1, 576" offset="2691212" size="1152" />
			<output>
				<port id="0" precision="FP16">
					<dim>1</dim>
					<dim>1</dim>
					<dim>576</dim>
				</port>
			</output>
		</layer>
		<layer id="166" name="Constant_15069" type="Convert" version="opset1">
			<data destination_type="f32" />
			<rt_info>
				<attribute name="decompression" version="0" />
			</rt_info>
			<input>
				<port id="0" precision="FP16">
					<dim>1</dim>
					<dim>1</dim>
					<dim>576</dim>
				</port>
			</input>
			<output>
				<port id="1" precision="FP32">
					<dim>1</dim>
					<dim>1</dim>
					<dim>576</dim>
				</port>
			</output>
		</layer>
		<layer id="167" name="__module.encoder.blocks.2.attn.qkv/aten::linear/Add" type="Add" version="opset1">
			<data auto_broadcast="numpy" />
			<input>
				<port id="0" precision="FP32">
					<dim>2</dim>
					<dim>1025</dim>
					<dim>576</dim>
				</port>
				<port id="1" precision="FP32">
					<dim>1</dim>
					<dim>1</dim>
					<dim>576</dim>
				</port>
			</input>
			<output>
				<port id="2" precision="FP32" names="284">
					<dim>2</dim>
					<dim>1025</dim>
					<dim>576</dim>
				</port>
			</output>
		</layer>
		<layer id="168" name="__module.encoder.blocks.2.attn/aten::size/ShapeOf_133" type="ShapeOf" version="opset3">
			<data output_type="i32" />
			<input>
				<port id="0" precision="FP32">
					<dim>2</dim>
					<dim>1025</dim>
					<dim>192</dim>
				</port>
			</input>
			<output>
				<port id="1" precision="I32">
					<dim>3</dim>
				</port>
			</output>
		</layer>
		<layer id="169" name="Constant_12873" type="Const" version="opset1">
			<data element_type="i32" shape="2" offset="1802606" size="8" />
			<output>
				<port id="0" precision="I32">
					<dim>2</dim>
				</port>
			</output>
		</layer>
		<layer id="170" name="Constant_12874" type="Const" version="opset1">
			<data element_type="i64" shape="" offset="1802614" size="8" />
			<output>
				<port id="0" precision="I64" />
			</output>
		</layer>
		<layer id="171" name="Gather_12875" type="Gather" version="opset8">
			<data batch_dims="0" />
			<input>
				<port id="0" precision="I32">
					<dim>3</dim>
				</port>
				<port id="1" precision="I32">
					<dim>2</dim>
				</port>
				<port id="2" precision="I64" />
			</input>
			<output>
				<port id="3" precision="I32">
					<dim>2</dim>
				</port>
			</output>
		</layer>
		<layer id="172" name="__module.encoder.blocks.2.attn/prim::ListConstruct_140/Reshape_1" type="Const" version="opset1">
			<data element_type="i32" shape="1" offset="1802622" size="4" />
			<output>
				<port id="0" precision="I32">
					<dim>1</dim>
				</port>
			</output>
		</layer>
		<layer id="173" name="__module.encoder.blocks.2.attn/prim::ListConstruct_140/Reshape_2" type="Const" version="opset1">
			<data element_type="i32" shape="1" offset="1802622" size="4" />
			<output>
				<port id="0" precision="I32">
					<dim>1</dim>
				</port>
			</output>
		</layer>
		<layer id="174" name="__module.encoder.blocks.2.attn/aten::size/Constant_137" type="Const" version="opset1">
			<data element_type="i32" shape="" offset="912836" size="4" />
			<output>
				<port id="0" precision="I32" />
			</output>
		</layer>
		<layer id="175" name="__module.encoder.blocks.2.attn/aten::size/Gather_138" type="Gather" version="opset8">
			<data batch_dims="0" />
			<input>
				<port id="0" precision="I32">
					<dim>3</dim>
				</port>
				<port id="1" precision="I32" />
				<port id="2" precision="I32" />
			</input>
			<output>
				<port id="3" precision="I32" names="282" />
			</output>
		</layer>
		<layer id="176" name="__module.encoder.blocks.2.attn/aten::floor_divide/Divide" type="Divide" version="opset1">
			<data auto_broadcast="numpy" m_pythondiv="true" />
			<input>
				<port id="0" precision="I32" />
				<port id="1" precision="I32" />
			</input>
			<output>
				<port id="2" precision="I32" />
			</output>
		</layer>
		<layer id="177" name="__module.encoder.blocks.2.attn/aten::floor_divide/Floor" type="Floor" version="opset1">
			<input>
				<port id="0" precision="I32" />
			</input>
			<output>
				<port id="1" precision="I32" names="285,286" />
			</output>
		</layer>
		<layer id="178" name="Constant_6205" type="Const" version="opset1">
			<data element_type="i64" shape="1" offset="1802626" size="8" />
			<output>
				<port id="0" precision="I64">
					<dim>1</dim>
				</port>
			</output>
		</layer>
		<layer id="179" name="__module.encoder.blocks.2.attn/prim::ListConstruct_140/Reshape_3" type="Reshape" version="opset1">
			<data special_zero="false" />
			<input>
				<port id="0" precision="I32" />
				<port id="1" precision="I64">
					<dim>1</dim>
				</port>
			</input>
			<output>
				<port id="2" precision="I32">
					<dim>1</dim>
				</port>
			</output>
		</layer>
		<layer id="180" name="__module.encoder.blocks.2.attn/prim::ListConstruct_140/Concat" type="Concat" version="opset1">
			<data axis="0" />
			<input>
				<port id="0" precision="I32">
					<dim>2</dim>
				</port>
				<port id="1" precision="I32">
					<dim>1</dim>
				</port>
				<port id="2" precision="I32">
					<dim>1</dim>
				</port>
				<port id="3" precision="I32">
					<dim>1</dim>
				</port>
			</input>
			<output>
				<port id="4" precision="I32" names="287">
					<dim>5</dim>
				</port>
			</output>
		</layer>
		<layer id="181" name="__module.encoder.blocks.2.attn/aten::reshape/Reshape" type="Reshape" version="opset1">
			<data special_zero="false" />
			<input>
				<port id="0" precision="FP32">
					<dim>2</dim>
					<dim>1025</dim>
					<dim>576</dim>
				</port>
				<port id="1" precision="I32">
					<dim>5</dim>
				</port>
			</input>
			<output>
				<port id="2" precision="FP32" names="288">
					<dim>2</dim>
					<dim>1025</dim>
					<dim>3</dim>
					<dim>3</dim>
					<dim>64</dim>
				</port>
			</output>
		</layer>
		<layer id="182" name="__module.encoder.blocks.2.attn/aten::permute/Transpose" type="Transpose" version="opset1">
			<input>
				<port id="0" precision="FP32">
					<dim>2</dim>
					<dim>1025</dim>
					<dim>3</dim>
					<dim>3</dim>
					<dim>64</dim>
				</port>
				<port id="1" precision="I32">
					<dim>5</dim>
				</port>
			</input>
			<output>
				<port id="2" precision="FP32" names="289,qkv.5">
					<dim>3</dim>
					<dim>2</dim>
					<dim>3</dim>
					<dim>1025</dim>
					<dim>64</dim>
				</port>
			</output>
		</layer>
		<layer id="183" name="__module.encoder.blocks.2.attn/aten::select/Gather" type="Gather" version="opset8">
			<data batch_dims="0" />
			<input>
				<port id="0" precision="FP32">
					<dim>3</dim>
					<dim>2</dim>
					<dim>3</dim>
					<dim>1025</dim>
					<dim>64</dim>
				</port>
				<port id="1" precision="I32" />
				<port id="2" precision="I32" />
			</input>
			<output>
				<port id="3" precision="FP32" names="290,q.5">
					<dim>2</dim>
					<dim>3</dim>
					<dim>1025</dim>
					<dim>64</dim>
				</port>
			</output>
		</layer>
		<layer id="184" name="__module.encoder.blocks.2.attn/aten::select/Gather_141" type="Gather" version="opset8">
			<data batch_dims="0" />
			<input>
				<port id="0" precision="FP32">
					<dim>3</dim>
					<dim>2</dim>
					<dim>3</dim>
					<dim>1025</dim>
					<dim>64</dim>
				</port>
				<port id="1" precision="I32" />
				<port id="2" precision="I32" />
			</input>
			<output>
				<port id="3" precision="FP32" names="291,k.5">
					<dim>2</dim>
					<dim>3</dim>
					<dim>1025</dim>
					<dim>64</dim>
				</port>
			</output>
		</layer>
		<layer id="185" name="Constant_15070_compressed" type="Const" version="opset1">
			<data element_type="f16" shape="1, 1, 1, 1" offset="2692364" size="2" />
			<output>
				<port id="0" precision="FP16">
					<dim>1</dim>
					<dim>1</dim>
					<dim>1</dim>
					<dim>1</dim>
				</port>
			</output>
		</layer>
		<layer id="186" name="Constant_15070" type="Convert" version="opset1">
			<data destination_type="f32" />
			<rt_info>
				<attribute name="decompression" version="0" />
			</rt_info>
			<input>
				<port id="0" precision="FP16">
					<dim>1</dim>
					<dim>1</dim>
					<dim>1</dim>
					<dim>1</dim>
				</port>
			</input>
			<output>
				<port id="1" precision="FP32">
					<dim>1</dim>
					<dim>1</dim>
					<dim>1</dim>
					<dim>1</dim>
				</port>
			</output>
		</layer>
		<layer id="187" name="Multiply_14807" type="Multiply" version="opset1">
			<data auto_broadcast="numpy" />
			<input>
				<port id="0" precision="FP32">
					<dim>2</dim>
					<dim>3</dim>
					<dim>1025</dim>
					<dim>64</dim>
				</port>
				<port id="1" precision="FP32">
					<dim>1</dim>
					<dim>1</dim>
					<dim>1</dim>
					<dim>1</dim>
				</port>
			</input>
			<output>
				<port id="2" precision="FP32">
					<dim>2</dim>
					<dim>3</dim>
					<dim>1025</dim>
					<dim>64</dim>
				</port>
			</output>
		</layer>
		<layer id="188" name="__module.encoder.blocks.2.attn/aten::mul/Multiply" type="MatMul" version="opset1">
			<data transpose_a="false" transpose_b="true" />
			<input>
				<port id="0" precision="FP32">
					<dim>2</dim>
					<dim>3</dim>
					<dim>1025</dim>
					<dim>64</dim>
				</port>
				<port id="1" precision="FP32">
					<dim>2</dim>
					<dim>3</dim>
					<dim>1025</dim>
					<dim>64</dim>
				</port>
			</input>
			<output>
				<port id="2" precision="FP32" names="295,attn.9">
					<dim>2</dim>
					<dim>3</dim>
					<dim>1025</dim>
					<dim>1025</dim>
				</port>
			</output>
		</layer>
		<layer id="189" name="__module.encoder.blocks.2.attn/aten::softmax/Softmax" type="SoftMax" version="opset8">
			<data axis="-1" />
			<input>
				<port id="0" precision="FP32">
					<dim>2</dim>
					<dim>3</dim>
					<dim>1025</dim>
					<dim>1025</dim>
				</port>
			</input>
			<output>
				<port id="1" precision="FP32" names="296,input.45">
					<dim>2</dim>
					<dim>3</dim>
					<dim>1025</dim>
					<dim>1025</dim>
				</port>
			</output>
		</layer>
		<layer id="190" name="__module.encoder.blocks.2.attn/aten::select/Gather_142" type="Gather" version="opset8">
			<data batch_dims="0" />
			<input>
				<port id="0" precision="FP32">
					<dim>3</dim>
					<dim>2</dim>
					<dim>3</dim>
					<dim>1025</dim>
					<dim>64</dim>
				</port>
				<port id="1" precision="I32" />
				<port id="2" precision="I32" />
			</input>
			<output>
				<port id="3" precision="FP32" names="292,v.5">
					<dim>2</dim>
					<dim>3</dim>
					<dim>1025</dim>
					<dim>64</dim>
				</port>
			</output>
		</layer>
		<layer id="191" name="__module.encoder.blocks.2.attn/aten::matmul/MatMul_152" type="MatMul" version="opset1">
			<data transpose_a="false" transpose_b="false" />
			<input>
				<port id="0" precision="FP32">
					<dim>2</dim>
					<dim>3</dim>
					<dim>1025</dim>
					<dim>1025</dim>
				</port>
				<port id="1" precision="FP32">
					<dim>2</dim>
					<dim>3</dim>
					<dim>1025</dim>
					<dim>64</dim>
				</port>
			</input>
			<output>
				<port id="2" precision="FP32" names="297">
					<dim>2</dim>
					<dim>3</dim>
					<dim>1025</dim>
					<dim>64</dim>
				</port>
			</output>
		</layer>
		<layer id="192" name="__module.encoder.blocks.2.attn/aten::transpose/ScatterElementsUpdate_171" type="Const" version="opset1">
			<data element_type="i32" shape="4" offset="912850" size="16" />
			<output>
				<port id="0" precision="I32">
					<dim>4</dim>
				</port>
			</output>
		</layer>
		<layer id="193" name="__module.encoder.blocks.2.attn/aten::transpose/Transpose_172" type="Transpose" version="opset1">
			<input>
				<port id="0" precision="FP32">
					<dim>2</dim>
					<dim>3</dim>
					<dim>1025</dim>
					<dim>64</dim>
				</port>
				<port id="1" precision="I32">
					<dim>4</dim>
				</port>
			</input>
			<output>
				<port id="2" precision="FP32" names="298">
					<dim>2</dim>
					<dim>1025</dim>
					<dim>3</dim>
					<dim>64</dim>
				</port>
			</output>
		</layer>
		<layer id="194" name="Constant_6208" type="Const" version="opset1">
			<data element_type="i64" shape="1" offset="1802626" size="8" />
			<output>
				<port id="0" precision="I64">
					<dim>1</dim>
				</port>
			</output>
		</layer>
		<layer id="195" name="__module.encoder.blocks.2.attn/prim::ListConstruct_175/Reshape_1" type="Reshape" version="opset1">
			<data special_zero="false" />
			<input>
				<port id="0" precision="I32" />
				<port id="1" precision="I64">
					<dim>1</dim>
				</port>
			</input>
			<output>
				<port id="2" precision="I32">
					<dim>1</dim>
				</port>
			</output>
		</layer>
		<layer id="196" name="__module.encoder.blocks.2.attn/prim::ListConstruct_175/Concat" type="Concat" version="opset1">
			<data axis="0" />
			<input>
				<port id="0" precision="I32">
					<dim>2</dim>
				</port>
				<port id="1" precision="I32">
					<dim>1</dim>
				</port>
			</input>
			<output>
				<port id="2" precision="I32" names="299">
					<dim>3</dim>
				</port>
			</output>
		</layer>
		<layer id="197" name="__module.encoder.blocks.2.attn/aten::reshape/Reshape_176" type="Reshape" version="opset1">
			<data special_zero="false" />
			<input>
				<port id="0" precision="FP32">
					<dim>2</dim>
					<dim>1025</dim>
					<dim>3</dim>
					<dim>64</dim>
				</port>
				<port id="1" precision="I32">
					<dim>3</dim>
				</port>
			</input>
			<output>
				<port id="2" precision="FP32" names="300,input.47">
					<dim>2</dim>
					<dim>1025</dim>
					<dim>192</dim>
				</port>
			</output>
		</layer>
		<layer id="198" name="self.encoder.blocks.2.attn.proj.weight_compressed" type="Const" version="opset1">
			<data element_type="f16" shape="192, 192" offset="2692366" size="73728" />
			<output>
				<port id="0" precision="FP16" names="176,self.encoder.blocks.2.attn.proj.weight">
					<dim>192</dim>
					<dim>192</dim>
				</port>
			</output>
		</layer>
		<layer id="199" name="self.encoder.blocks.2.attn.proj.weight" type="Convert" version="opset1">
			<data destination_type="f32" />
			<rt_info>
				<attribute name="decompression" version="0" />
			</rt_info>
			<input>
				<port id="0" precision="FP16">
					<dim>192</dim>
					<dim>192</dim>
				</port>
			</input>
			<output>
				<port id="1" precision="FP32">
					<dim>192</dim>
					<dim>192</dim>
				</port>
			</output>
		</layer>
		<layer id="200" name="__module.encoder.blocks.2.attn.proj/aten::linear/MatMul_177" type="MatMul" version="opset1">
			<data transpose_a="false" transpose_b="true" />
			<input>
				<port id="0" precision="FP32">
					<dim>2</dim>
					<dim>1025</dim>
					<dim>192</dim>
				</port>
				<port id="1" precision="FP32">
					<dim>192</dim>
					<dim>192</dim>
				</port>
			</input>
			<output>
				<port id="2" precision="FP32">
					<dim>2</dim>
					<dim>1025</dim>
					<dim>192</dim>
				</port>
			</output>
		</layer>
		<layer id="201" name="Constant_15071_compressed" type="Const" version="opset1">
			<data element_type="f16" shape="1, 1, 192" offset="2766094" size="384" />
			<output>
				<port id="0" precision="FP16">
					<dim>1</dim>
					<dim>1</dim>
					<dim>192</dim>
				</port>
			</output>
		</layer>
		<layer id="202" name="Constant_15071" type="Convert" version="opset1">
			<data destination_type="f32" />
			<rt_info>
				<attribute name="decompression" version="0" />
			</rt_info>
			<input>
				<port id="0" precision="FP16">
					<dim>1</dim>
					<dim>1</dim>
					<dim>192</dim>
				</port>
			</input>
			<output>
				<port id="1" precision="FP32">
					<dim>1</dim>
					<dim>1</dim>
					<dim>192</dim>
				</port>
			</output>
		</layer>
		<layer id="203" name="__module.encoder.blocks.2.attn.proj/aten::linear/Add" type="Add" version="opset1">
			<data auto_broadcast="numpy" />
			<input>
				<port id="0" precision="FP32">
					<dim>2</dim>
					<dim>1025</dim>
					<dim>192</dim>
				</port>
				<port id="1" precision="FP32">
					<dim>1</dim>
					<dim>1</dim>
					<dim>192</dim>
				</port>
			</input>
			<output>
				<port id="2" precision="FP32" names="301,input.49">
					<dim>2</dim>
					<dim>1025</dim>
					<dim>192</dim>
				</port>
			</output>
		</layer>
		<layer id="204" name="__module.encoder.blocks.2/aten::add/Add" type="Add" version="opset1">
			<data auto_broadcast="numpy" />
			<input>
				<port id="0" precision="FP32">
					<dim>2</dim>
					<dim>1025</dim>
					<dim>192</dim>
				</port>
				<port id="1" precision="FP32">
					<dim>2</dim>
					<dim>1025</dim>
					<dim>192</dim>
				</port>
			</input>
			<output>
				<port id="2" precision="FP32" names="302,input.51">
					<dim>2</dim>
					<dim>1025</dim>
					<dim>192</dim>
				</port>
			</output>
		</layer>
		<layer id="205" name="__module.encoder.blocks.2.norm2/aten::layer_norm/Constant" type="Const" version="opset1">
			<data element_type="i32" shape="1" offset="689688" size="4" />
			<output>
				<port id="0" precision="I32">
					<dim>1</dim>
				</port>
			</output>
		</layer>
		<layer id="206" name="__module.encoder.blocks.2.norm2/aten::layer_norm/MVN" type="MVN" version="opset6">
			<data eps="9.9999997473787516e-06" normalize_variance="true" eps_mode="INSIDE_SQRT" />
			<input>
				<port id="0" precision="FP32">
					<dim>2</dim>
					<dim>1025</dim>
					<dim>192</dim>
				</port>
				<port id="1" precision="I32">
					<dim>1</dim>
				</port>
			</input>
			<output>
				<port id="2" precision="FP32">
					<dim>2</dim>
					<dim>1025</dim>
					<dim>192</dim>
				</port>
			</output>
		</layer>
		<layer id="207" name="Constant_15072_compressed" type="Const" version="opset1">
			<data element_type="f16" shape="1, 1, 192" offset="2766478" size="384" />
			<output>
				<port id="0" precision="FP16">
					<dim>1</dim>
					<dim>1</dim>
					<dim>192</dim>
				</port>
			</output>
		</layer>
		<layer id="208" name="Constant_15072" type="Convert" version="opset1">
			<data destination_type="f32" />
			<rt_info>
				<attribute name="decompression" version="0" />
			</rt_info>
			<input>
				<port id="0" precision="FP16">
					<dim>1</dim>
					<dim>1</dim>
					<dim>192</dim>
				</port>
			</input>
			<output>
				<port id="1" precision="FP32">
					<dim>1</dim>
					<dim>1</dim>
					<dim>192</dim>
				</port>
			</output>
		</layer>
		<layer id="209" name="__module.encoder.blocks.2.norm2/aten::layer_norm/Multiply" type="Multiply" version="opset1">
			<data auto_broadcast="numpy" />
			<input>
				<port id="0" precision="FP32">
					<dim>2</dim>
					<dim>1025</dim>
					<dim>192</dim>
				</port>
				<port id="1" precision="FP32">
					<dim>1</dim>
					<dim>1</dim>
					<dim>192</dim>
				</port>
			</input>
			<output>
				<port id="2" precision="FP32">
					<dim>2</dim>
					<dim>1025</dim>
					<dim>192</dim>
				</port>
			</output>
		</layer>
		<layer id="210" name="Constant_15073_compressed" type="Const" version="opset1">
			<data element_type="f16" shape="1, 1, 192" offset="2766862" size="384" />
			<output>
				<port id="0" precision="FP16">
					<dim>1</dim>
					<dim>1</dim>
					<dim>192</dim>
				</port>
			</output>
		</layer>
		<layer id="211" name="Constant_15073" type="Convert" version="opset1">
			<data destination_type="f32" />
			<rt_info>
				<attribute name="decompression" version="0" />
			</rt_info>
			<input>
				<port id="0" precision="FP16">
					<dim>1</dim>
					<dim>1</dim>
					<dim>192</dim>
				</port>
			</input>
			<output>
				<port id="1" precision="FP32">
					<dim>1</dim>
					<dim>1</dim>
					<dim>192</dim>
				</port>
			</output>
		</layer>
		<layer id="212" name="__module.encoder.blocks.2.norm2/aten::layer_norm/Add" type="Add" version="opset1">
			<data auto_broadcast="numpy" />
			<input>
				<port id="0" precision="FP32">
					<dim>2</dim>
					<dim>1025</dim>
					<dim>192</dim>
				</port>
				<port id="1" precision="FP32">
					<dim>1</dim>
					<dim>1</dim>
					<dim>192</dim>
				</port>
			</input>
			<output>
				<port id="2" precision="FP32" names="303,input.53">
					<dim>2</dim>
					<dim>1025</dim>
					<dim>192</dim>
				</port>
			</output>
		</layer>
		<layer id="213" name="self.encoder.blocks.2.mlp.fc1.weight_compressed" type="Const" version="opset1">
			<data element_type="f16" shape="768, 192" offset="2767246" size="294912" />
			<output>
				<port id="0" precision="FP16" names="172,self.encoder.blocks.2.mlp.fc1.weight">
					<dim>768</dim>
					<dim>192</dim>
				</port>
			</output>
		</layer>
		<layer id="214" name="self.encoder.blocks.2.mlp.fc1.weight" type="Convert" version="opset1">
			<data destination_type="f32" />
			<rt_info>
				<attribute name="decompression" version="0" />
			</rt_info>
			<input>
				<port id="0" precision="FP16">
					<dim>768</dim>
					<dim>192</dim>
				</port>
			</input>
			<output>
				<port id="1" precision="FP32">
					<dim>768</dim>
					<dim>192</dim>
				</port>
			</output>
		</layer>
		<layer id="215" name="__module.encoder.blocks.2.mlp.fc1/aten::linear/MatMul_178" type="MatMul" version="opset1">
			<data transpose_a="false" transpose_b="true" />
			<input>
				<port id="0" precision="FP32">
					<dim>2</dim>
					<dim>1025</dim>
					<dim>192</dim>
				</port>
				<port id="1" precision="FP32">
					<dim>768</dim>
					<dim>192</dim>
				</port>
			</input>
			<output>
				<port id="2" precision="FP32">
					<dim>2</dim>
					<dim>1025</dim>
					<dim>768</dim>
				</port>
			</output>
		</layer>
		<layer id="216" name="Constant_15074_compressed" type="Const" version="opset1">
			<data element_type="f16" shape="1, 1, 768" offset="3062158" size="1536" />
			<output>
				<port id="0" precision="FP16">
					<dim>1</dim>
					<dim>1</dim>
					<dim>768</dim>
				</port>
			</output>
		</layer>
		<layer id="217" name="Constant_15074" type="Convert" version="opset1">
			<data destination_type="f32" />
			<rt_info>
				<attribute name="decompression" version="0" />
			</rt_info>
			<input>
				<port id="0" precision="FP16">
					<dim>1</dim>
					<dim>1</dim>
					<dim>768</dim>
				</port>
			</input>
			<output>
				<port id="1" precision="FP32">
					<dim>1</dim>
					<dim>1</dim>
					<dim>768</dim>
				</port>
			</output>
		</layer>
		<layer id="218" name="__module.encoder.blocks.2.mlp.fc1/aten::linear/Add" type="Add" version="opset1">
			<data auto_broadcast="numpy" />
			<input>
				<port id="0" precision="FP32">
					<dim>2</dim>
					<dim>1025</dim>
					<dim>768</dim>
				</port>
				<port id="1" precision="FP32">
					<dim>1</dim>
					<dim>1</dim>
					<dim>768</dim>
				</port>
			</input>
			<output>
				<port id="2" precision="FP32" names="304,input.55">
					<dim>2</dim>
					<dim>1025</dim>
					<dim>768</dim>
				</port>
			</output>
		</layer>
		<layer id="219" name="__module.encoder.blocks.2.mlp.act/aten::gelu/Gelu" type="Gelu" version="opset7">
			<data approximation_mode="ERF" />
			<input>
				<port id="0" precision="FP32">
					<dim>2</dim>
					<dim>1025</dim>
					<dim>768</dim>
				</port>
			</input>
			<output>
				<port id="1" precision="FP32" names="305,input.57">
					<dim>2</dim>
					<dim>1025</dim>
					<dim>768</dim>
				</port>
			</output>
		</layer>
		<layer id="220" name="self.encoder.blocks.2.mlp.fc2.weight_compressed" type="Const" version="opset1">
			<data element_type="f16" shape="192, 768" offset="3063694" size="294912" />
			<output>
				<port id="0" precision="FP16" names="170,self.encoder.blocks.2.mlp.fc2.weight">
					<dim>192</dim>
					<dim>768</dim>
				</port>
			</output>
		</layer>
		<layer id="221" name="self.encoder.blocks.2.mlp.fc2.weight" type="Convert" version="opset1">
			<data destination_type="f32" />
			<rt_info>
				<attribute name="decompression" version="0" />
			</rt_info>
			<input>
				<port id="0" precision="FP16">
					<dim>192</dim>
					<dim>768</dim>
				</port>
			</input>
			<output>
				<port id="1" precision="FP32">
					<dim>192</dim>
					<dim>768</dim>
				</port>
			</output>
		</layer>
		<layer id="222" name="__module.encoder.blocks.2.mlp.fc2/aten::linear/MatMul_179" type="MatMul" version="opset1">
			<data transpose_a="false" transpose_b="true" />
			<input>
				<port id="0" precision="FP32">
					<dim>2</dim>
					<dim>1025</dim>
					<dim>768</dim>
				</port>
				<port id="1" precision="FP32">
					<dim>192</dim>
					<dim>768</dim>
				</port>
			</input>
			<output>
				<port id="2" precision="FP32">
					<dim>2</dim>
					<dim>1025</dim>
					<dim>192</dim>
				</port>
			</output>
		</layer>
		<layer id="223" name="Constant_15075_compressed" type="Const" version="opset1">
			<data element_type="f16" shape="1, 1, 192" offset="3358606" size="384" />
			<output>
				<port id="0" precision="FP16">
					<dim>1</dim>
					<dim>1</dim>
					<dim>192</dim>
				</port>
			</output>
		</layer>
		<layer id="224" name="Constant_15075" type="Convert" version="opset1">
			<data destination_type="f32" />
			<rt_info>
				<attribute name="decompression" version="0" />
			</rt_info>
			<input>
				<port id="0" precision="FP16">
					<dim>1</dim>
					<dim>1</dim>
					<dim>192</dim>
				</port>
			</input>
			<output>
				<port id="1" precision="FP32">
					<dim>1</dim>
					<dim>1</dim>
					<dim>192</dim>
				</port>
			</output>
		</layer>
		<layer id="225" name="__module.encoder.blocks.2.mlp.fc2/aten::linear/Add" type="Add" version="opset1">
			<data auto_broadcast="numpy" />
			<input>
				<port id="0" precision="FP32">
					<dim>2</dim>
					<dim>1025</dim>
					<dim>192</dim>
				</port>
				<port id="1" precision="FP32">
					<dim>1</dim>
					<dim>1</dim>
					<dim>192</dim>
				</port>
			</input>
			<output>
				<port id="2" precision="FP32" names="306,input.61">
					<dim>2</dim>
					<dim>1025</dim>
					<dim>192</dim>
				</port>
			</output>
		</layer>
		<layer id="226" name="__module.encoder.blocks.2/aten::add/Add_182" type="Add" version="opset1">
			<data auto_broadcast="numpy" />
			<input>
				<port id="0" precision="FP32">
					<dim>2</dim>
					<dim>1025</dim>
					<dim>192</dim>
				</port>
				<port id="1" precision="FP32">
					<dim>2</dim>
					<dim>1025</dim>
					<dim>192</dim>
				</port>
			</input>
			<output>
				<port id="2" precision="FP32" names="307,input.63">
					<dim>2</dim>
					<dim>1025</dim>
					<dim>192</dim>
				</port>
			</output>
		</layer>
		<layer id="227" name="__module.encoder.blocks.3.norm1/aten::layer_norm/Constant" type="Const" version="opset1">
			<data element_type="i32" shape="1" offset="689688" size="4" />
			<output>
				<port id="0" precision="I32">
					<dim>1</dim>
				</port>
			</output>
		</layer>
		<layer id="228" name="__module.encoder.blocks.3.norm1/aten::layer_norm/MVN" type="MVN" version="opset6">
			<data eps="9.9999997473787516e-06" normalize_variance="true" eps_mode="INSIDE_SQRT" />
			<input>
				<port id="0" precision="FP32">
					<dim>2</dim>
					<dim>1025</dim>
					<dim>192</dim>
				</port>
				<port id="1" precision="I32">
					<dim>1</dim>
				</port>
			</input>
			<output>
				<port id="2" precision="FP32">
					<dim>2</dim>
					<dim>1025</dim>
					<dim>192</dim>
				</port>
			</output>
		</layer>
		<layer id="229" name="Constant_15076_compressed" type="Const" version="opset1">
			<data element_type="f16" shape="1, 1, 192" offset="3358990" size="384" />
			<output>
				<port id="0" precision="FP16">
					<dim>1</dim>
					<dim>1</dim>
					<dim>192</dim>
				</port>
			</output>
		</layer>
		<layer id="230" name="Constant_15076" type="Convert" version="opset1">
			<data destination_type="f32" />
			<rt_info>
				<attribute name="decompression" version="0" />
			</rt_info>
			<input>
				<port id="0" precision="FP16">
					<dim>1</dim>
					<dim>1</dim>
					<dim>192</dim>
				</port>
			</input>
			<output>
				<port id="1" precision="FP32">
					<dim>1</dim>
					<dim>1</dim>
					<dim>192</dim>
				</port>
			</output>
		</layer>
		<layer id="231" name="__module.encoder.blocks.3.norm1/aten::layer_norm/Multiply" type="Multiply" version="opset1">
			<data auto_broadcast="numpy" />
			<input>
				<port id="0" precision="FP32">
					<dim>2</dim>
					<dim>1025</dim>
					<dim>192</dim>
				</port>
				<port id="1" precision="FP32">
					<dim>1</dim>
					<dim>1</dim>
					<dim>192</dim>
				</port>
			</input>
			<output>
				<port id="2" precision="FP32">
					<dim>2</dim>
					<dim>1025</dim>
					<dim>192</dim>
				</port>
			</output>
		</layer>
		<layer id="232" name="Constant_15077_compressed" type="Const" version="opset1">
			<data element_type="f16" shape="1, 1, 192" offset="3359374" size="384" />
			<output>
				<port id="0" precision="FP16">
					<dim>1</dim>
					<dim>1</dim>
					<dim>192</dim>
				</port>
			</output>
		</layer>
		<layer id="233" name="Constant_15077" type="Convert" version="opset1">
			<data destination_type="f32" />
			<rt_info>
				<attribute name="decompression" version="0" />
			</rt_info>
			<input>
				<port id="0" precision="FP16">
					<dim>1</dim>
					<dim>1</dim>
					<dim>192</dim>
				</port>
			</input>
			<output>
				<port id="1" precision="FP32">
					<dim>1</dim>
					<dim>1</dim>
					<dim>192</dim>
				</port>
			</output>
		</layer>
		<layer id="234" name="__module.encoder.blocks.3.norm1/aten::layer_norm/Add" type="Add" version="opset1">
			<data auto_broadcast="numpy" />
			<input>
				<port id="0" precision="FP32">
					<dim>2</dim>
					<dim>1025</dim>
					<dim>192</dim>
				</port>
				<port id="1" precision="FP32">
					<dim>1</dim>
					<dim>1</dim>
					<dim>192</dim>
				</port>
			</input>
			<output>
				<port id="2" precision="FP32" names="308,x.11">
					<dim>2</dim>
					<dim>1025</dim>
					<dim>192</dim>
				</port>
			</output>
		</layer>
		<layer id="235" name="self.encoder.blocks.3.attn.qkv.weight_compressed" type="Const" version="opset1">
			<data element_type="f16" shape="576, 192" offset="3359758" size="221184" />
			<output>
				<port id="0" precision="FP16" names="166,self.encoder.blocks.3.attn.qkv.weight">
					<dim>576</dim>
					<dim>192</dim>
				</port>
			</output>
		</layer>
		<layer id="236" name="self.encoder.blocks.3.attn.qkv.weight" type="Convert" version="opset1">
			<data destination_type="f32" />
			<rt_info>
				<attribute name="decompression" version="0" />
			</rt_info>
			<input>
				<port id="0" precision="FP16">
					<dim>576</dim>
					<dim>192</dim>
				</port>
			</input>
			<output>
				<port id="1" precision="FP32">
					<dim>576</dim>
					<dim>192</dim>
				</port>
			</output>
		</layer>
		<layer id="237" name="__module.encoder.blocks.3.attn.qkv/aten::linear/MatMul_189" type="MatMul" version="opset1">
			<data transpose_a="false" transpose_b="true" />
			<input>
				<port id="0" precision="FP32">
					<dim>2</dim>
					<dim>1025</dim>
					<dim>192</dim>
				</port>
				<port id="1" precision="FP32">
					<dim>576</dim>
					<dim>192</dim>
				</port>
			</input>
			<output>
				<port id="2" precision="FP32">
					<dim>2</dim>
					<dim>1025</dim>
					<dim>576</dim>
				</port>
			</output>
		</layer>
		<layer id="238" name="Constant_15078_compressed" type="Const" version="opset1">
			<data element_type="f16" shape="1, 1, 576" offset="3580942" size="1152" />
			<output>
				<port id="0" precision="FP16">
					<dim>1</dim>
					<dim>1</dim>
					<dim>576</dim>
				</port>
			</output>
		</layer>
		<layer id="239" name="Constant_15078" type="Convert" version="opset1">
			<data destination_type="f32" />
			<rt_info>
				<attribute name="decompression" version="0" />
			</rt_info>
			<input>
				<port id="0" precision="FP16">
					<dim>1</dim>
					<dim>1</dim>
					<dim>576</dim>
				</port>
			</input>
			<output>
				<port id="1" precision="FP32">
					<dim>1</dim>
					<dim>1</dim>
					<dim>576</dim>
				</port>
			</output>
		</layer>
		<layer id="240" name="__module.encoder.blocks.3.attn.qkv/aten::linear/Add" type="Add" version="opset1">
			<data auto_broadcast="numpy" />
			<input>
				<port id="0" precision="FP32">
					<dim>2</dim>
					<dim>1025</dim>
					<dim>576</dim>
				</port>
				<port id="1" precision="FP32">
					<dim>1</dim>
					<dim>1</dim>
					<dim>576</dim>
				</port>
			</input>
			<output>
				<port id="2" precision="FP32" names="313">
					<dim>2</dim>
					<dim>1025</dim>
					<dim>576</dim>
				</port>
			</output>
		</layer>
		<layer id="241" name="__module.encoder.blocks.3.attn/aten::size/ShapeOf" type="ShapeOf" version="opset3">
			<data output_type="i32" />
			<input>
				<port id="0" precision="FP32">
					<dim>2</dim>
					<dim>1025</dim>
					<dim>192</dim>
				</port>
			</input>
			<output>
				<port id="1" precision="I32">
					<dim>3</dim>
				</port>
			</output>
		</layer>
		<layer id="242" name="Constant_12883" type="Const" version="opset1">
			<data element_type="i32" shape="2" offset="1802606" size="8" />
			<output>
				<port id="0" precision="I32">
					<dim>2</dim>
				</port>
			</output>
		</layer>
		<layer id="243" name="Constant_12884" type="Const" version="opset1">
			<data element_type="i64" shape="" offset="1802614" size="8" />
			<output>
				<port id="0" precision="I64" />
			</output>
		</layer>
		<layer id="244" name="Gather_12885" type="Gather" version="opset8">
			<data batch_dims="0" />
			<input>
				<port id="0" precision="I32">
					<dim>3</dim>
				</port>
				<port id="1" precision="I32">
					<dim>2</dim>
				</port>
				<port id="2" precision="I64" />
			</input>
			<output>
				<port id="3" precision="I32">
					<dim>2</dim>
				</port>
			</output>
		</layer>
		<layer id="245" name="__module.encoder.blocks.3.attn/prim::ListConstruct_190/Reshape_1" type="Const" version="opset1">
			<data element_type="i32" shape="1" offset="1802622" size="4" />
			<output>
				<port id="0" precision="I32">
					<dim>1</dim>
				</port>
			</output>
		</layer>
		<layer id="246" name="__module.encoder.blocks.3.attn/prim::ListConstruct_190/Reshape_2" type="Const" version="opset1">
			<data element_type="i32" shape="1" offset="1802622" size="4" />
			<output>
				<port id="0" precision="I32">
					<dim>1</dim>
				</port>
			</output>
		</layer>
		<layer id="247" name="__module.encoder.blocks.3.attn/aten::size/Constant_187" type="Const" version="opset1">
			<data element_type="i32" shape="" offset="912836" size="4" />
			<output>
				<port id="0" precision="I32" />
			</output>
		</layer>
		<layer id="248" name="__module.encoder.blocks.3.attn/aten::size/Gather_188" type="Gather" version="opset8">
			<data batch_dims="0" />
			<input>
				<port id="0" precision="I32">
					<dim>3</dim>
				</port>
				<port id="1" precision="I32" />
				<port id="2" precision="I32" />
			</input>
			<output>
				<port id="3" precision="I32" names="311" />
			</output>
		</layer>
		<layer id="249" name="__module.encoder.blocks.3.attn/aten::floor_divide/Divide" type="Divide" version="opset1">
			<data auto_broadcast="numpy" m_pythondiv="true" />
			<input>
				<port id="0" precision="I32" />
				<port id="1" precision="I32" />
			</input>
			<output>
				<port id="2" precision="I32" />
			</output>
		</layer>
		<layer id="250" name="__module.encoder.blocks.3.attn/aten::floor_divide/Floor" type="Floor" version="opset1">
			<input>
				<port id="0" precision="I32" />
			</input>
			<output>
				<port id="1" precision="I32" names="314,315" />
			</output>
		</layer>
		<layer id="251" name="Constant_6213" type="Const" version="opset1">
			<data element_type="i64" shape="1" offset="1802626" size="8" />
			<output>
				<port id="0" precision="I64">
					<dim>1</dim>
				</port>
			</output>
		</layer>
		<layer id="252" name="__module.encoder.blocks.3.attn/prim::ListConstruct_190/Reshape_3" type="Reshape" version="opset1">
			<data special_zero="false" />
			<input>
				<port id="0" precision="I32" />
				<port id="1" precision="I64">
					<dim>1</dim>
				</port>
			</input>
			<output>
				<port id="2" precision="I32">
					<dim>1</dim>
				</port>
			</output>
		</layer>
		<layer id="253" name="__module.encoder.blocks.3.attn/prim::ListConstruct_190/Concat" type="Concat" version="opset1">
			<data axis="0" />
			<input>
				<port id="0" precision="I32">
					<dim>2</dim>
				</port>
				<port id="1" precision="I32">
					<dim>1</dim>
				</port>
				<port id="2" precision="I32">
					<dim>1</dim>
				</port>
				<port id="3" precision="I32">
					<dim>1</dim>
				</port>
			</input>
			<output>
				<port id="4" precision="I32" names="316">
					<dim>5</dim>
				</port>
			</output>
		</layer>
		<layer id="254" name="__module.encoder.blocks.3.attn/aten::reshape/Reshape" type="Reshape" version="opset1">
			<data special_zero="false" />
			<input>
				<port id="0" precision="FP32">
					<dim>2</dim>
					<dim>1025</dim>
					<dim>576</dim>
				</port>
				<port id="1" precision="I32">
					<dim>5</dim>
				</port>
			</input>
			<output>
				<port id="2" precision="FP32" names="317">
					<dim>2</dim>
					<dim>1025</dim>
					<dim>3</dim>
					<dim>3</dim>
					<dim>64</dim>
				</port>
			</output>
		</layer>
		<layer id="255" name="__module.encoder.blocks.3.attn/aten::permute/Transpose" type="Transpose" version="opset1">
			<input>
				<port id="0" precision="FP32">
					<dim>2</dim>
					<dim>1025</dim>
					<dim>3</dim>
					<dim>3</dim>
					<dim>64</dim>
				</port>
				<port id="1" precision="I32">
					<dim>5</dim>
				</port>
			</input>
			<output>
				<port id="2" precision="FP32" names="318,qkv.7">
					<dim>3</dim>
					<dim>2</dim>
					<dim>3</dim>
					<dim>1025</dim>
					<dim>64</dim>
				</port>
			</output>
		</layer>
		<layer id="256" name="__module.encoder.blocks.3.attn/aten::select/Gather" type="Gather" version="opset8">
			<data batch_dims="0" />
			<input>
				<port id="0" precision="FP32">
					<dim>3</dim>
					<dim>2</dim>
					<dim>3</dim>
					<dim>1025</dim>
					<dim>64</dim>
				</port>
				<port id="1" precision="I32" />
				<port id="2" precision="I32" />
			</input>
			<output>
				<port id="3" precision="FP32" names="319,q.7">
					<dim>2</dim>
					<dim>3</dim>
					<dim>1025</dim>
					<dim>64</dim>
				</port>
			</output>
		</layer>
		<layer id="257" name="__module.encoder.blocks.3.attn/aten::select/Gather_191" type="Gather" version="opset8">
			<data batch_dims="0" />
			<input>
				<port id="0" precision="FP32">
					<dim>3</dim>
					<dim>2</dim>
					<dim>3</dim>
					<dim>1025</dim>
					<dim>64</dim>
				</port>
				<port id="1" precision="I32" />
				<port id="2" precision="I32" />
			</input>
			<output>
				<port id="3" precision="FP32" names="320,k.7">
					<dim>2</dim>
					<dim>3</dim>
					<dim>1025</dim>
					<dim>64</dim>
				</port>
			</output>
		</layer>
		<layer id="258" name="Constant_15079_compressed" type="Const" version="opset1">
			<data element_type="f16" shape="1, 1, 1, 1" offset="3582094" size="2" />
			<output>
				<port id="0" precision="FP16">
					<dim>1</dim>
					<dim>1</dim>
					<dim>1</dim>
					<dim>1</dim>
				</port>
			</output>
		</layer>
		<layer id="259" name="Constant_15079" type="Convert" version="opset1">
			<data destination_type="f32" />
			<rt_info>
				<attribute name="decompression" version="0" />
			</rt_info>
			<input>
				<port id="0" precision="FP16">
					<dim>1</dim>
					<dim>1</dim>
					<dim>1</dim>
					<dim>1</dim>
				</port>
			</input>
			<output>
				<port id="1" precision="FP32">
					<dim>1</dim>
					<dim>1</dim>
					<dim>1</dim>
					<dim>1</dim>
				</port>
			</output>
		</layer>
		<layer id="260" name="Multiply_14809" type="Multiply" version="opset1">
			<data auto_broadcast="numpy" />
			<input>
				<port id="0" precision="FP32">
					<dim>2</dim>
					<dim>3</dim>
					<dim>1025</dim>
					<dim>64</dim>
				</port>
				<port id="1" precision="FP32">
					<dim>1</dim>
					<dim>1</dim>
					<dim>1</dim>
					<dim>1</dim>
				</port>
			</input>
			<output>
				<port id="2" precision="FP32">
					<dim>2</dim>
					<dim>3</dim>
					<dim>1025</dim>
					<dim>64</dim>
				</port>
			</output>
		</layer>
		<layer id="261" name="__module.encoder.blocks.3.attn/aten::mul/Multiply" type="MatMul" version="opset1">
			<data transpose_a="false" transpose_b="true" />
			<input>
				<port id="0" precision="FP32">
					<dim>2</dim>
					<dim>3</dim>
					<dim>1025</dim>
					<dim>64</dim>
				</port>
				<port id="1" precision="FP32">
					<dim>2</dim>
					<dim>3</dim>
					<dim>1025</dim>
					<dim>64</dim>
				</port>
			</input>
			<output>
				<port id="2" precision="FP32" names="324,attn.13">
					<dim>2</dim>
					<dim>3</dim>
					<dim>1025</dim>
					<dim>1025</dim>
				</port>
			</output>
		</layer>
		<layer id="262" name="__module.encoder.blocks.3.attn/aten::softmax/Softmax" type="SoftMax" version="opset8">
			<data axis="-1" />
			<input>
				<port id="0" precision="FP32">
					<dim>2</dim>
					<dim>3</dim>
					<dim>1025</dim>
					<dim>1025</dim>
				</port>
			</input>
			<output>
				<port id="1" precision="FP32" names="325,input.65">
					<dim>2</dim>
					<dim>3</dim>
					<dim>1025</dim>
					<dim>1025</dim>
				</port>
			</output>
		</layer>
		<layer id="263" name="__module.encoder.blocks.3.attn/aten::select/Gather_192" type="Gather" version="opset8">
			<data batch_dims="0" />
			<input>
				<port id="0" precision="FP32">
					<dim>3</dim>
					<dim>2</dim>
					<dim>3</dim>
					<dim>1025</dim>
					<dim>64</dim>
				</port>
				<port id="1" precision="I32" />
				<port id="2" precision="I32" />
			</input>
			<output>
				<port id="3" precision="FP32" names="321,v.7">
					<dim>2</dim>
					<dim>3</dim>
					<dim>1025</dim>
					<dim>64</dim>
				</port>
			</output>
		</layer>
		<layer id="264" name="__module.encoder.blocks.3.attn/aten::matmul/MatMul_202" type="MatMul" version="opset1">
			<data transpose_a="false" transpose_b="false" />
			<input>
				<port id="0" precision="FP32">
					<dim>2</dim>
					<dim>3</dim>
					<dim>1025</dim>
					<dim>1025</dim>
				</port>
				<port id="1" precision="FP32">
					<dim>2</dim>
					<dim>3</dim>
					<dim>1025</dim>
					<dim>64</dim>
				</port>
			</input>
			<output>
				<port id="2" precision="FP32" names="326">
					<dim>2</dim>
					<dim>3</dim>
					<dim>1025</dim>
					<dim>64</dim>
				</port>
			</output>
		</layer>
		<layer id="265" name="__module.encoder.blocks.3.attn/aten::transpose/ScatterElementsUpdate_221" type="Const" version="opset1">
			<data element_type="i32" shape="4" offset="912850" size="16" />
			<output>
				<port id="0" precision="I32">
					<dim>4</dim>
				</port>
			</output>
		</layer>
		<layer id="266" name="__module.encoder.blocks.3.attn/aten::transpose/Transpose_222" type="Transpose" version="opset1">
			<input>
				<port id="0" precision="FP32">
					<dim>2</dim>
					<dim>3</dim>
					<dim>1025</dim>
					<dim>64</dim>
				</port>
				<port id="1" precision="I32">
					<dim>4</dim>
				</port>
			</input>
			<output>
				<port id="2" precision="FP32" names="327">
					<dim>2</dim>
					<dim>1025</dim>
					<dim>3</dim>
					<dim>64</dim>
				</port>
			</output>
		</layer>
		<layer id="267" name="Constant_6216" type="Const" version="opset1">
			<data element_type="i64" shape="1" offset="1802626" size="8" />
			<output>
				<port id="0" precision="I64">
					<dim>1</dim>
				</port>
			</output>
		</layer>
		<layer id="268" name="__module.encoder.blocks.3.attn/prim::ListConstruct_225/Reshape_1" type="Reshape" version="opset1">
			<data special_zero="false" />
			<input>
				<port id="0" precision="I32" />
				<port id="1" precision="I64">
					<dim>1</dim>
				</port>
			</input>
			<output>
				<port id="2" precision="I32">
					<dim>1</dim>
				</port>
			</output>
		</layer>
		<layer id="269" name="__module.encoder.blocks.3.attn/prim::ListConstruct_225/Concat" type="Concat" version="opset1">
			<data axis="0" />
			<input>
				<port id="0" precision="I32">
					<dim>2</dim>
				</port>
				<port id="1" precision="I32">
					<dim>1</dim>
				</port>
			</input>
			<output>
				<port id="2" precision="I32" names="328">
					<dim>3</dim>
				</port>
			</output>
		</layer>
		<layer id="270" name="__module.encoder.blocks.3.attn/aten::reshape/Reshape_226" type="Reshape" version="opset1">
			<data special_zero="false" />
			<input>
				<port id="0" precision="FP32">
					<dim>2</dim>
					<dim>1025</dim>
					<dim>3</dim>
					<dim>64</dim>
				</port>
				<port id="1" precision="I32">
					<dim>3</dim>
				</port>
			</input>
			<output>
				<port id="2" precision="FP32" names="329,input.67">
					<dim>2</dim>
					<dim>1025</dim>
					<dim>192</dim>
				</port>
			</output>
		</layer>
		<layer id="271" name="self.encoder.blocks.3.attn.proj.weight_compressed" type="Const" version="opset1">
			<data element_type="f16" shape="192, 192" offset="3582096" size="73728" />
			<output>
				<port id="0" precision="FP16" names="164,self.encoder.blocks.3.attn.proj.weight">
					<dim>192</dim>
					<dim>192</dim>
				</port>
			</output>
		</layer>
		<layer id="272" name="self.encoder.blocks.3.attn.proj.weight" type="Convert" version="opset1">
			<data destination_type="f32" />
			<rt_info>
				<attribute name="decompression" version="0" />
			</rt_info>
			<input>
				<port id="0" precision="FP16">
					<dim>192</dim>
					<dim>192</dim>
				</port>
			</input>
			<output>
				<port id="1" precision="FP32">
					<dim>192</dim>
					<dim>192</dim>
				</port>
			</output>
		</layer>
		<layer id="273" name="__module.encoder.blocks.3.attn.proj/aten::linear/MatMul_227" type="MatMul" version="opset1">
			<data transpose_a="false" transpose_b="true" />
			<input>
				<port id="0" precision="FP32">
					<dim>2</dim>
					<dim>1025</dim>
					<dim>192</dim>
				</port>
				<port id="1" precision="FP32">
					<dim>192</dim>
					<dim>192</dim>
				</port>
			</input>
			<output>
				<port id="2" precision="FP32">
					<dim>2</dim>
					<dim>1025</dim>
					<dim>192</dim>
				</port>
			</output>
		</layer>
		<layer id="274" name="Constant_15080_compressed" type="Const" version="opset1">
			<data element_type="f16" shape="1, 1, 192" offset="3655824" size="384" />
			<output>
				<port id="0" precision="FP16">
					<dim>1</dim>
					<dim>1</dim>
					<dim>192</dim>
				</port>
			</output>
		</layer>
		<layer id="275" name="Constant_15080" type="Convert" version="opset1">
			<data destination_type="f32" />
			<rt_info>
				<attribute name="decompression" version="0" />
			</rt_info>
			<input>
				<port id="0" precision="FP16">
					<dim>1</dim>
					<dim>1</dim>
					<dim>192</dim>
				</port>
			</input>
			<output>
				<port id="1" precision="FP32">
					<dim>1</dim>
					<dim>1</dim>
					<dim>192</dim>
				</port>
			</output>
		</layer>
		<layer id="276" name="__module.encoder.blocks.3.attn.proj/aten::linear/Add" type="Add" version="opset1">
			<data auto_broadcast="numpy" />
			<input>
				<port id="0" precision="FP32">
					<dim>2</dim>
					<dim>1025</dim>
					<dim>192</dim>
				</port>
				<port id="1" precision="FP32">
					<dim>1</dim>
					<dim>1</dim>
					<dim>192</dim>
				</port>
			</input>
			<output>
				<port id="2" precision="FP32" names="330,input.69">
					<dim>2</dim>
					<dim>1025</dim>
					<dim>192</dim>
				</port>
			</output>
		</layer>
		<layer id="277" name="__module.encoder.blocks.3/aten::add/Add" type="Add" version="opset1">
			<data auto_broadcast="numpy" />
			<input>
				<port id="0" precision="FP32">
					<dim>2</dim>
					<dim>1025</dim>
					<dim>192</dim>
				</port>
				<port id="1" precision="FP32">
					<dim>2</dim>
					<dim>1025</dim>
					<dim>192</dim>
				</port>
			</input>
			<output>
				<port id="2" precision="FP32" names="331,input.71">
					<dim>2</dim>
					<dim>1025</dim>
					<dim>192</dim>
				</port>
			</output>
		</layer>
		<layer id="278" name="__module.encoder.blocks.3.norm2/aten::layer_norm/Constant" type="Const" version="opset1">
			<data element_type="i32" shape="1" offset="689688" size="4" />
			<output>
				<port id="0" precision="I32">
					<dim>1</dim>
				</port>
			</output>
		</layer>
		<layer id="279" name="__module.encoder.blocks.3.norm2/aten::layer_norm/MVN" type="MVN" version="opset6">
			<data eps="9.9999997473787516e-06" normalize_variance="true" eps_mode="INSIDE_SQRT" />
			<input>
				<port id="0" precision="FP32">
					<dim>2</dim>
					<dim>1025</dim>
					<dim>192</dim>
				</port>
				<port id="1" precision="I32">
					<dim>1</dim>
				</port>
			</input>
			<output>
				<port id="2" precision="FP32">
					<dim>2</dim>
					<dim>1025</dim>
					<dim>192</dim>
				</port>
			</output>
		</layer>
		<layer id="280" name="Constant_15081_compressed" type="Const" version="opset1">
			<data element_type="f16" shape="1, 1, 192" offset="3656208" size="384" />
			<output>
				<port id="0" precision="FP16">
					<dim>1</dim>
					<dim>1</dim>
					<dim>192</dim>
				</port>
			</output>
		</layer>
		<layer id="281" name="Constant_15081" type="Convert" version="opset1">
			<data destination_type="f32" />
			<rt_info>
				<attribute name="decompression" version="0" />
			</rt_info>
			<input>
				<port id="0" precision="FP16">
					<dim>1</dim>
					<dim>1</dim>
					<dim>192</dim>
				</port>
			</input>
			<output>
				<port id="1" precision="FP32">
					<dim>1</dim>
					<dim>1</dim>
					<dim>192</dim>
				</port>
			</output>
		</layer>
		<layer id="282" name="__module.encoder.blocks.3.norm2/aten::layer_norm/Multiply" type="Multiply" version="opset1">
			<data auto_broadcast="numpy" />
			<input>
				<port id="0" precision="FP32">
					<dim>2</dim>
					<dim>1025</dim>
					<dim>192</dim>
				</port>
				<port id="1" precision="FP32">
					<dim>1</dim>
					<dim>1</dim>
					<dim>192</dim>
				</port>
			</input>
			<output>
				<port id="2" precision="FP32">
					<dim>2</dim>
					<dim>1025</dim>
					<dim>192</dim>
				</port>
			</output>
		</layer>
		<layer id="283" name="Constant_15082_compressed" type="Const" version="opset1">
			<data element_type="f16" shape="1, 1, 192" offset="3656592" size="384" />
			<output>
				<port id="0" precision="FP16">
					<dim>1</dim>
					<dim>1</dim>
					<dim>192</dim>
				</port>
			</output>
		</layer>
		<layer id="284" name="Constant_15082" type="Convert" version="opset1">
			<data destination_type="f32" />
			<rt_info>
				<attribute name="decompression" version="0" />
			</rt_info>
			<input>
				<port id="0" precision="FP16">
					<dim>1</dim>
					<dim>1</dim>
					<dim>192</dim>
				</port>
			</input>
			<output>
				<port id="1" precision="FP32">
					<dim>1</dim>
					<dim>1</dim>
					<dim>192</dim>
				</port>
			</output>
		</layer>
		<layer id="285" name="__module.encoder.blocks.3.norm2/aten::layer_norm/Add" type="Add" version="opset1">
			<data auto_broadcast="numpy" />
			<input>
				<port id="0" precision="FP32">
					<dim>2</dim>
					<dim>1025</dim>
					<dim>192</dim>
				</port>
				<port id="1" precision="FP32">
					<dim>1</dim>
					<dim>1</dim>
					<dim>192</dim>
				</port>
			</input>
			<output>
				<port id="2" precision="FP32" names="332,input.73">
					<dim>2</dim>
					<dim>1025</dim>
					<dim>192</dim>
				</port>
			</output>
		</layer>
		<layer id="286" name="self.encoder.blocks.3.mlp.fc1.weight_compressed" type="Const" version="opset1">
			<data element_type="f16" shape="768, 192" offset="3656976" size="294912" />
			<output>
				<port id="0" precision="FP16" names="160,self.encoder.blocks.3.mlp.fc1.weight">
					<dim>768</dim>
					<dim>192</dim>
				</port>
			</output>
		</layer>
		<layer id="287" name="self.encoder.blocks.3.mlp.fc1.weight" type="Convert" version="opset1">
			<data destination_type="f32" />
			<rt_info>
				<attribute name="decompression" version="0" />
			</rt_info>
			<input>
				<port id="0" precision="FP16">
					<dim>768</dim>
					<dim>192</dim>
				</port>
			</input>
			<output>
				<port id="1" precision="FP32">
					<dim>768</dim>
					<dim>192</dim>
				</port>
			</output>
		</layer>
		<layer id="288" name="__module.encoder.blocks.3.mlp.fc1/aten::linear/MatMul_228" type="MatMul" version="opset1">
			<data transpose_a="false" transpose_b="true" />
			<input>
				<port id="0" precision="FP32">
					<dim>2</dim>
					<dim>1025</dim>
					<dim>192</dim>
				</port>
				<port id="1" precision="FP32">
					<dim>768</dim>
					<dim>192</dim>
				</port>
			</input>
			<output>
				<port id="2" precision="FP32">
					<dim>2</dim>
					<dim>1025</dim>
					<dim>768</dim>
				</port>
			</output>
		</layer>
		<layer id="289" name="Constant_15083_compressed" type="Const" version="opset1">
			<data element_type="f16" shape="1, 1, 768" offset="3951888" size="1536" />
			<output>
				<port id="0" precision="FP16">
					<dim>1</dim>
					<dim>1</dim>
					<dim>768</dim>
				</port>
			</output>
		</layer>
		<layer id="290" name="Constant_15083" type="Convert" version="opset1">
			<data destination_type="f32" />
			<rt_info>
				<attribute name="decompression" version="0" />
			</rt_info>
			<input>
				<port id="0" precision="FP16">
					<dim>1</dim>
					<dim>1</dim>
					<dim>768</dim>
				</port>
			</input>
			<output>
				<port id="1" precision="FP32">
					<dim>1</dim>
					<dim>1</dim>
					<dim>768</dim>
				</port>
			</output>
		</layer>
		<layer id="291" name="__module.encoder.blocks.3.mlp.fc1/aten::linear/Add" type="Add" version="opset1">
			<data auto_broadcast="numpy" />
			<input>
				<port id="0" precision="FP32">
					<dim>2</dim>
					<dim>1025</dim>
					<dim>768</dim>
				</port>
				<port id="1" precision="FP32">
					<dim>1</dim>
					<dim>1</dim>
					<dim>768</dim>
				</port>
			</input>
			<output>
				<port id="2" precision="FP32" names="333,input.75">
					<dim>2</dim>
					<dim>1025</dim>
					<dim>768</dim>
				</port>
			</output>
		</layer>
		<layer id="292" name="__module.encoder.blocks.3.mlp.act/aten::gelu/Gelu" type="Gelu" version="opset7">
			<data approximation_mode="ERF" />
			<input>
				<port id="0" precision="FP32">
					<dim>2</dim>
					<dim>1025</dim>
					<dim>768</dim>
				</port>
			</input>
			<output>
				<port id="1" precision="FP32" names="334,input.77">
					<dim>2</dim>
					<dim>1025</dim>
					<dim>768</dim>
				</port>
			</output>
		</layer>
		<layer id="293" name="self.encoder.blocks.3.mlp.fc2.weight_compressed" type="Const" version="opset1">
			<data element_type="f16" shape="192, 768" offset="3953424" size="294912" />
			<output>
				<port id="0" precision="FP16" names="158,self.encoder.blocks.3.mlp.fc2.weight">
					<dim>192</dim>
					<dim>768</dim>
				</port>
			</output>
		</layer>
		<layer id="294" name="self.encoder.blocks.3.mlp.fc2.weight" type="Convert" version="opset1">
			<data destination_type="f32" />
			<rt_info>
				<attribute name="decompression" version="0" />
			</rt_info>
			<input>
				<port id="0" precision="FP16">
					<dim>192</dim>
					<dim>768</dim>
				</port>
			</input>
			<output>
				<port id="1" precision="FP32">
					<dim>192</dim>
					<dim>768</dim>
				</port>
			</output>
		</layer>
		<layer id="295" name="__module.encoder.blocks.3.mlp.fc2/aten::linear/MatMul_229" type="MatMul" version="opset1">
			<data transpose_a="false" transpose_b="true" />
			<input>
				<port id="0" precision="FP32">
					<dim>2</dim>
					<dim>1025</dim>
					<dim>768</dim>
				</port>
				<port id="1" precision="FP32">
					<dim>192</dim>
					<dim>768</dim>
				</port>
			</input>
			<output>
				<port id="2" precision="FP32">
					<dim>2</dim>
					<dim>1025</dim>
					<dim>192</dim>
				</port>
			</output>
		</layer>
		<layer id="296" name="Constant_15084_compressed" type="Const" version="opset1">
			<data element_type="f16" shape="1, 1, 192" offset="4248336" size="384" />
			<output>
				<port id="0" precision="FP16">
					<dim>1</dim>
					<dim>1</dim>
					<dim>192</dim>
				</port>
			</output>
		</layer>
		<layer id="297" name="Constant_15084" type="Convert" version="opset1">
			<data destination_type="f32" />
			<rt_info>
				<attribute name="decompression" version="0" />
			</rt_info>
			<input>
				<port id="0" precision="FP16">
					<dim>1</dim>
					<dim>1</dim>
					<dim>192</dim>
				</port>
			</input>
			<output>
				<port id="1" precision="FP32">
					<dim>1</dim>
					<dim>1</dim>
					<dim>192</dim>
				</port>
			</output>
		</layer>
		<layer id="298" name="__module.encoder.blocks.3.mlp.fc2/aten::linear/Add" type="Add" version="opset1">
			<data auto_broadcast="numpy" />
			<input>
				<port id="0" precision="FP32">
					<dim>2</dim>
					<dim>1025</dim>
					<dim>192</dim>
				</port>
				<port id="1" precision="FP32">
					<dim>1</dim>
					<dim>1</dim>
					<dim>192</dim>
				</port>
			</input>
			<output>
				<port id="2" precision="FP32" names="335,input.81">
					<dim>2</dim>
					<dim>1025</dim>
					<dim>192</dim>
				</port>
			</output>
		</layer>
		<layer id="299" name="__module.encoder.blocks.3/aten::add/Add_232" type="Add" version="opset1">
			<data auto_broadcast="numpy" />
			<input>
				<port id="0" precision="FP32">
					<dim>2</dim>
					<dim>1025</dim>
					<dim>192</dim>
				</port>
				<port id="1" precision="FP32">
					<dim>2</dim>
					<dim>1025</dim>
					<dim>192</dim>
				</port>
			</input>
			<output>
				<port id="2" precision="FP32" names="336,input.83">
					<dim>2</dim>
					<dim>1025</dim>
					<dim>192</dim>
				</port>
			</output>
		</layer>
		<layer id="300" name="__module.encoder.blocks.4.norm1/aten::layer_norm/Constant" type="Const" version="opset1">
			<data element_type="i32" shape="1" offset="689688" size="4" />
			<output>
				<port id="0" precision="I32">
					<dim>1</dim>
				</port>
			</output>
		</layer>
		<layer id="301" name="__module.encoder.blocks.4.norm1/aten::layer_norm/MVN" type="MVN" version="opset6">
			<data eps="9.9999997473787516e-06" normalize_variance="true" eps_mode="INSIDE_SQRT" />
			<input>
				<port id="0" precision="FP32">
					<dim>2</dim>
					<dim>1025</dim>
					<dim>192</dim>
				</port>
				<port id="1" precision="I32">
					<dim>1</dim>
				</port>
			</input>
			<output>
				<port id="2" precision="FP32">
					<dim>2</dim>
					<dim>1025</dim>
					<dim>192</dim>
				</port>
			</output>
		</layer>
		<layer id="302" name="Constant_15085_compressed" type="Const" version="opset1">
			<data element_type="f16" shape="1, 1, 192" offset="4248720" size="384" />
			<output>
				<port id="0" precision="FP16">
					<dim>1</dim>
					<dim>1</dim>
					<dim>192</dim>
				</port>
			</output>
		</layer>
		<layer id="303" name="Constant_15085" type="Convert" version="opset1">
			<data destination_type="f32" />
			<rt_info>
				<attribute name="decompression" version="0" />
			</rt_info>
			<input>
				<port id="0" precision="FP16">
					<dim>1</dim>
					<dim>1</dim>
					<dim>192</dim>
				</port>
			</input>
			<output>
				<port id="1" precision="FP32">
					<dim>1</dim>
					<dim>1</dim>
					<dim>192</dim>
				</port>
			</output>
		</layer>
		<layer id="304" name="__module.encoder.blocks.4.norm1/aten::layer_norm/Multiply" type="Multiply" version="opset1">
			<data auto_broadcast="numpy" />
			<input>
				<port id="0" precision="FP32">
					<dim>2</dim>
					<dim>1025</dim>
					<dim>192</dim>
				</port>
				<port id="1" precision="FP32">
					<dim>1</dim>
					<dim>1</dim>
					<dim>192</dim>
				</port>
			</input>
			<output>
				<port id="2" precision="FP32">
					<dim>2</dim>
					<dim>1025</dim>
					<dim>192</dim>
				</port>
			</output>
		</layer>
		<layer id="305" name="Constant_15086_compressed" type="Const" version="opset1">
			<data element_type="f16" shape="1, 1, 192" offset="4249104" size="384" />
			<output>
				<port id="0" precision="FP16">
					<dim>1</dim>
					<dim>1</dim>
					<dim>192</dim>
				</port>
			</output>
		</layer>
		<layer id="306" name="Constant_15086" type="Convert" version="opset1">
			<data destination_type="f32" />
			<rt_info>
				<attribute name="decompression" version="0" />
			</rt_info>
			<input>
				<port id="0" precision="FP16">
					<dim>1</dim>
					<dim>1</dim>
					<dim>192</dim>
				</port>
			</input>
			<output>
				<port id="1" precision="FP32">
					<dim>1</dim>
					<dim>1</dim>
					<dim>192</dim>
				</port>
			</output>
		</layer>
		<layer id="307" name="__module.encoder.blocks.4.norm1/aten::layer_norm/Add" type="Add" version="opset1">
			<data auto_broadcast="numpy" />
			<input>
				<port id="0" precision="FP32">
					<dim>2</dim>
					<dim>1025</dim>
					<dim>192</dim>
				</port>
				<port id="1" precision="FP32">
					<dim>1</dim>
					<dim>1</dim>
					<dim>192</dim>
				</port>
			</input>
			<output>
				<port id="2" precision="FP32" names="337,x.13">
					<dim>2</dim>
					<dim>1025</dim>
					<dim>192</dim>
				</port>
			</output>
		</layer>
		<layer id="308" name="self.encoder.blocks.4.attn.qkv.weight_compressed" type="Const" version="opset1">
			<data element_type="f16" shape="576, 192" offset="4249488" size="221184" />
			<output>
				<port id="0" precision="FP16" names="154,self.encoder.blocks.4.attn.qkv.weight">
					<dim>576</dim>
					<dim>192</dim>
				</port>
			</output>
		</layer>
		<layer id="309" name="self.encoder.blocks.4.attn.qkv.weight" type="Convert" version="opset1">
			<data destination_type="f32" />
			<rt_info>
				<attribute name="decompression" version="0" />
			</rt_info>
			<input>
				<port id="0" precision="FP16">
					<dim>576</dim>
					<dim>192</dim>
				</port>
			</input>
			<output>
				<port id="1" precision="FP32">
					<dim>576</dim>
					<dim>192</dim>
				</port>
			</output>
		</layer>
		<layer id="310" name="__module.encoder.blocks.4.attn.qkv/aten::linear/MatMul_239" type="MatMul" version="opset1">
			<data transpose_a="false" transpose_b="true" />
			<input>
				<port id="0" precision="FP32">
					<dim>2</dim>
					<dim>1025</dim>
					<dim>192</dim>
				</port>
				<port id="1" precision="FP32">
					<dim>576</dim>
					<dim>192</dim>
				</port>
			</input>
			<output>
				<port id="2" precision="FP32">
					<dim>2</dim>
					<dim>1025</dim>
					<dim>576</dim>
				</port>
			</output>
		</layer>
		<layer id="311" name="Constant_15087_compressed" type="Const" version="opset1">
			<data element_type="f16" shape="1, 1, 576" offset="4470672" size="1152" />
			<output>
				<port id="0" precision="FP16">
					<dim>1</dim>
					<dim>1</dim>
					<dim>576</dim>
				</port>
			</output>
		</layer>
		<layer id="312" name="Constant_15087" type="Convert" version="opset1">
			<data destination_type="f32" />
			<rt_info>
				<attribute name="decompression" version="0" />
			</rt_info>
			<input>
				<port id="0" precision="FP16">
					<dim>1</dim>
					<dim>1</dim>
					<dim>576</dim>
				</port>
			</input>
			<output>
				<port id="1" precision="FP32">
					<dim>1</dim>
					<dim>1</dim>
					<dim>576</dim>
				</port>
			</output>
		</layer>
		<layer id="313" name="__module.encoder.blocks.4.attn.qkv/aten::linear/Add" type="Add" version="opset1">
			<data auto_broadcast="numpy" />
			<input>
				<port id="0" precision="FP32">
					<dim>2</dim>
					<dim>1025</dim>
					<dim>576</dim>
				</port>
				<port id="1" precision="FP32">
					<dim>1</dim>
					<dim>1</dim>
					<dim>576</dim>
				</port>
			</input>
			<output>
				<port id="2" precision="FP32" names="342">
					<dim>2</dim>
					<dim>1025</dim>
					<dim>576</dim>
				</port>
			</output>
		</layer>
		<layer id="314" name="__module.encoder.blocks.4.attn/aten::size/ShapeOf" type="ShapeOf" version="opset3">
			<data output_type="i32" />
			<input>
				<port id="0" precision="FP32">
					<dim>2</dim>
					<dim>1025</dim>
					<dim>192</dim>
				</port>
			</input>
			<output>
				<port id="1" precision="I32">
					<dim>3</dim>
				</port>
			</output>
		</layer>
		<layer id="315" name="Constant_12893" type="Const" version="opset1">
			<data element_type="i32" shape="2" offset="1802606" size="8" />
			<output>
				<port id="0" precision="I32">
					<dim>2</dim>
				</port>
			</output>
		</layer>
		<layer id="316" name="Constant_12894" type="Const" version="opset1">
			<data element_type="i64" shape="" offset="1802614" size="8" />
			<output>
				<port id="0" precision="I64" />
			</output>
		</layer>
		<layer id="317" name="Gather_12895" type="Gather" version="opset8">
			<data batch_dims="0" />
			<input>
				<port id="0" precision="I32">
					<dim>3</dim>
				</port>
				<port id="1" precision="I32">
					<dim>2</dim>
				</port>
				<port id="2" precision="I64" />
			</input>
			<output>
				<port id="3" precision="I32">
					<dim>2</dim>
				</port>
			</output>
		</layer>
		<layer id="318" name="__module.encoder.blocks.4.attn/prim::ListConstruct_240/Reshape_1" type="Const" version="opset1">
			<data element_type="i32" shape="1" offset="1802622" size="4" />
			<output>
				<port id="0" precision="I32">
					<dim>1</dim>
				</port>
			</output>
		</layer>
		<layer id="319" name="__module.encoder.blocks.4.attn/prim::ListConstruct_240/Reshape_2" type="Const" version="opset1">
			<data element_type="i32" shape="1" offset="1802622" size="4" />
			<output>
				<port id="0" precision="I32">
					<dim>1</dim>
				</port>
			</output>
		</layer>
		<layer id="320" name="__module.encoder.blocks.4.attn/aten::size/Constant_237" type="Const" version="opset1">
			<data element_type="i32" shape="" offset="912836" size="4" />
			<output>
				<port id="0" precision="I32" />
			</output>
		</layer>
		<layer id="321" name="__module.encoder.blocks.4.attn/aten::size/Gather_238" type="Gather" version="opset8">
			<data batch_dims="0" />
			<input>
				<port id="0" precision="I32">
					<dim>3</dim>
				</port>
				<port id="1" precision="I32" />
				<port id="2" precision="I32" />
			</input>
			<output>
				<port id="3" precision="I32" names="340" />
			</output>
		</layer>
		<layer id="322" name="__module.encoder.blocks.4.attn/aten::floor_divide/Divide" type="Divide" version="opset1">
			<data auto_broadcast="numpy" m_pythondiv="true" />
			<input>
				<port id="0" precision="I32" />
				<port id="1" precision="I32" />
			</input>
			<output>
				<port id="2" precision="I32" />
			</output>
		</layer>
		<layer id="323" name="__module.encoder.blocks.4.attn/aten::floor_divide/Floor" type="Floor" version="opset1">
			<input>
				<port id="0" precision="I32" />
			</input>
			<output>
				<port id="1" precision="I32" names="343,344" />
			</output>
		</layer>
		<layer id="324" name="Constant_6221" type="Const" version="opset1">
			<data element_type="i64" shape="1" offset="1802626" size="8" />
			<output>
				<port id="0" precision="I64">
					<dim>1</dim>
				</port>
			</output>
		</layer>
		<layer id="325" name="__module.encoder.blocks.4.attn/prim::ListConstruct_240/Reshape_3" type="Reshape" version="opset1">
			<data special_zero="false" />
			<input>
				<port id="0" precision="I32" />
				<port id="1" precision="I64">
					<dim>1</dim>
				</port>
			</input>
			<output>
				<port id="2" precision="I32">
					<dim>1</dim>
				</port>
			</output>
		</layer>
		<layer id="326" name="__module.encoder.blocks.4.attn/prim::ListConstruct_240/Concat" type="Concat" version="opset1">
			<data axis="0" />
			<input>
				<port id="0" precision="I32">
					<dim>2</dim>
				</port>
				<port id="1" precision="I32">
					<dim>1</dim>
				</port>
				<port id="2" precision="I32">
					<dim>1</dim>
				</port>
				<port id="3" precision="I32">
					<dim>1</dim>
				</port>
			</input>
			<output>
				<port id="4" precision="I32" names="345">
					<dim>5</dim>
				</port>
			</output>
		</layer>
		<layer id="327" name="__module.encoder.blocks.4.attn/aten::reshape/Reshape" type="Reshape" version="opset1">
			<data special_zero="false" />
			<input>
				<port id="0" precision="FP32">
					<dim>2</dim>
					<dim>1025</dim>
					<dim>576</dim>
				</port>
				<port id="1" precision="I32">
					<dim>5</dim>
				</port>
			</input>
			<output>
				<port id="2" precision="FP32" names="346">
					<dim>2</dim>
					<dim>1025</dim>
					<dim>3</dim>
					<dim>3</dim>
					<dim>64</dim>
				</port>
			</output>
		</layer>
		<layer id="328" name="__module.encoder.blocks.4.attn/aten::permute/Transpose" type="Transpose" version="opset1">
			<input>
				<port id="0" precision="FP32">
					<dim>2</dim>
					<dim>1025</dim>
					<dim>3</dim>
					<dim>3</dim>
					<dim>64</dim>
				</port>
				<port id="1" precision="I32">
					<dim>5</dim>
				</port>
			</input>
			<output>
				<port id="2" precision="FP32" names="347,qkv.9">
					<dim>3</dim>
					<dim>2</dim>
					<dim>3</dim>
					<dim>1025</dim>
					<dim>64</dim>
				</port>
			</output>
		</layer>
		<layer id="329" name="__module.encoder.blocks.4.attn/aten::select/Gather" type="Gather" version="opset8">
			<data batch_dims="0" />
			<input>
				<port id="0" precision="FP32">
					<dim>3</dim>
					<dim>2</dim>
					<dim>3</dim>
					<dim>1025</dim>
					<dim>64</dim>
				</port>
				<port id="1" precision="I32" />
				<port id="2" precision="I32" />
			</input>
			<output>
				<port id="3" precision="FP32" names="348,q.9">
					<dim>2</dim>
					<dim>3</dim>
					<dim>1025</dim>
					<dim>64</dim>
				</port>
			</output>
		</layer>
		<layer id="330" name="__module.encoder.blocks.4.attn/aten::select/Gather_241" type="Gather" version="opset8">
			<data batch_dims="0" />
			<input>
				<port id="0" precision="FP32">
					<dim>3</dim>
					<dim>2</dim>
					<dim>3</dim>
					<dim>1025</dim>
					<dim>64</dim>
				</port>
				<port id="1" precision="I32" />
				<port id="2" precision="I32" />
			</input>
			<output>
				<port id="3" precision="FP32" names="349,k.9">
					<dim>2</dim>
					<dim>3</dim>
					<dim>1025</dim>
					<dim>64</dim>
				</port>
			</output>
		</layer>
		<layer id="331" name="Constant_15088_compressed" type="Const" version="opset1">
			<data element_type="f16" shape="1, 1, 1, 1" offset="4471824" size="2" />
			<output>
				<port id="0" precision="FP16">
					<dim>1</dim>
					<dim>1</dim>
					<dim>1</dim>
					<dim>1</dim>
				</port>
			</output>
		</layer>
		<layer id="332" name="Constant_15088" type="Convert" version="opset1">
			<data destination_type="f32" />
			<rt_info>
				<attribute name="decompression" version="0" />
			</rt_info>
			<input>
				<port id="0" precision="FP16">
					<dim>1</dim>
					<dim>1</dim>
					<dim>1</dim>
					<dim>1</dim>
				</port>
			</input>
			<output>
				<port id="1" precision="FP32">
					<dim>1</dim>
					<dim>1</dim>
					<dim>1</dim>
					<dim>1</dim>
				</port>
			</output>
		</layer>
		<layer id="333" name="Multiply_14811" type="Multiply" version="opset1">
			<data auto_broadcast="numpy" />
			<input>
				<port id="0" precision="FP32">
					<dim>2</dim>
					<dim>3</dim>
					<dim>1025</dim>
					<dim>64</dim>
				</port>
				<port id="1" precision="FP32">
					<dim>1</dim>
					<dim>1</dim>
					<dim>1</dim>
					<dim>1</dim>
				</port>
			</input>
			<output>
				<port id="2" precision="FP32">
					<dim>2</dim>
					<dim>3</dim>
					<dim>1025</dim>
					<dim>64</dim>
				</port>
			</output>
		</layer>
		<layer id="334" name="__module.encoder.blocks.4.attn/aten::mul/Multiply" type="MatMul" version="opset1">
			<data transpose_a="false" transpose_b="true" />
			<input>
				<port id="0" precision="FP32">
					<dim>2</dim>
					<dim>3</dim>
					<dim>1025</dim>
					<dim>64</dim>
				</port>
				<port id="1" precision="FP32">
					<dim>2</dim>
					<dim>3</dim>
					<dim>1025</dim>
					<dim>64</dim>
				</port>
			</input>
			<output>
				<port id="2" precision="FP32" names="353,attn.17">
					<dim>2</dim>
					<dim>3</dim>
					<dim>1025</dim>
					<dim>1025</dim>
				</port>
			</output>
		</layer>
		<layer id="335" name="__module.encoder.blocks.4.attn/aten::softmax/Softmax" type="SoftMax" version="opset8">
			<data axis="-1" />
			<input>
				<port id="0" precision="FP32">
					<dim>2</dim>
					<dim>3</dim>
					<dim>1025</dim>
					<dim>1025</dim>
				</port>
			</input>
			<output>
				<port id="1" precision="FP32" names="354,input.85">
					<dim>2</dim>
					<dim>3</dim>
					<dim>1025</dim>
					<dim>1025</dim>
				</port>
			</output>
		</layer>
		<layer id="336" name="__module.encoder.blocks.4.attn/aten::select/Gather_242" type="Gather" version="opset8">
			<data batch_dims="0" />
			<input>
				<port id="0" precision="FP32">
					<dim>3</dim>
					<dim>2</dim>
					<dim>3</dim>
					<dim>1025</dim>
					<dim>64</dim>
				</port>
				<port id="1" precision="I32" />
				<port id="2" precision="I32" />
			</input>
			<output>
				<port id="3" precision="FP32" names="350,v.9">
					<dim>2</dim>
					<dim>3</dim>
					<dim>1025</dim>
					<dim>64</dim>
				</port>
			</output>
		</layer>
		<layer id="337" name="__module.encoder.blocks.4.attn/aten::matmul/MatMul_252" type="MatMul" version="opset1">
			<data transpose_a="false" transpose_b="false" />
			<input>
				<port id="0" precision="FP32">
					<dim>2</dim>
					<dim>3</dim>
					<dim>1025</dim>
					<dim>1025</dim>
				</port>
				<port id="1" precision="FP32">
					<dim>2</dim>
					<dim>3</dim>
					<dim>1025</dim>
					<dim>64</dim>
				</port>
			</input>
			<output>
				<port id="2" precision="FP32" names="355">
					<dim>2</dim>
					<dim>3</dim>
					<dim>1025</dim>
					<dim>64</dim>
				</port>
			</output>
		</layer>
		<layer id="338" name="__module.encoder.blocks.4.attn/aten::transpose/ScatterElementsUpdate_271" type="Const" version="opset1">
			<data element_type="i32" shape="4" offset="912850" size="16" />
			<output>
				<port id="0" precision="I32">
					<dim>4</dim>
				</port>
			</output>
		</layer>
		<layer id="339" name="__module.encoder.blocks.4.attn/aten::transpose/Transpose_272" type="Transpose" version="opset1">
			<input>
				<port id="0" precision="FP32">
					<dim>2</dim>
					<dim>3</dim>
					<dim>1025</dim>
					<dim>64</dim>
				</port>
				<port id="1" precision="I32">
					<dim>4</dim>
				</port>
			</input>
			<output>
				<port id="2" precision="FP32" names="356">
					<dim>2</dim>
					<dim>1025</dim>
					<dim>3</dim>
					<dim>64</dim>
				</port>
			</output>
		</layer>
		<layer id="340" name="Constant_6224" type="Const" version="opset1">
			<data element_type="i64" shape="1" offset="1802626" size="8" />
			<output>
				<port id="0" precision="I64">
					<dim>1</dim>
				</port>
			</output>
		</layer>
		<layer id="341" name="__module.encoder.blocks.4.attn/prim::ListConstruct_275/Reshape_1" type="Reshape" version="opset1">
			<data special_zero="false" />
			<input>
				<port id="0" precision="I32" />
				<port id="1" precision="I64">
					<dim>1</dim>
				</port>
			</input>
			<output>
				<port id="2" precision="I32">
					<dim>1</dim>
				</port>
			</output>
		</layer>
		<layer id="342" name="__module.encoder.blocks.4.attn/prim::ListConstruct_275/Concat" type="Concat" version="opset1">
			<data axis="0" />
			<input>
				<port id="0" precision="I32">
					<dim>2</dim>
				</port>
				<port id="1" precision="I32">
					<dim>1</dim>
				</port>
			</input>
			<output>
				<port id="2" precision="I32" names="357">
					<dim>3</dim>
				</port>
			</output>
		</layer>
		<layer id="343" name="__module.encoder.blocks.4.attn/aten::reshape/Reshape_276" type="Reshape" version="opset1">
			<data special_zero="false" />
			<input>
				<port id="0" precision="FP32">
					<dim>2</dim>
					<dim>1025</dim>
					<dim>3</dim>
					<dim>64</dim>
				</port>
				<port id="1" precision="I32">
					<dim>3</dim>
				</port>
			</input>
			<output>
				<port id="2" precision="FP32" names="358,input.87">
					<dim>2</dim>
					<dim>1025</dim>
					<dim>192</dim>
				</port>
			</output>
		</layer>
		<layer id="344" name="self.encoder.blocks.4.attn.proj.weight_compressed" type="Const" version="opset1">
			<data element_type="f16" shape="192, 192" offset="4471826" size="73728" />
			<output>
				<port id="0" precision="FP16" names="152,self.encoder.blocks.4.attn.proj.weight">
					<dim>192</dim>
					<dim>192</dim>
				</port>
			</output>
		</layer>
		<layer id="345" name="self.encoder.blocks.4.attn.proj.weight" type="Convert" version="opset1">
			<data destination_type="f32" />
			<rt_info>
				<attribute name="decompression" version="0" />
			</rt_info>
			<input>
				<port id="0" precision="FP16">
					<dim>192</dim>
					<dim>192</dim>
				</port>
			</input>
			<output>
				<port id="1" precision="FP32">
					<dim>192</dim>
					<dim>192</dim>
				</port>
			</output>
		</layer>
		<layer id="346" name="__module.encoder.blocks.4.attn.proj/aten::linear/MatMul_277" type="MatMul" version="opset1">
			<data transpose_a="false" transpose_b="true" />
			<input>
				<port id="0" precision="FP32">
					<dim>2</dim>
					<dim>1025</dim>
					<dim>192</dim>
				</port>
				<port id="1" precision="FP32">
					<dim>192</dim>
					<dim>192</dim>
				</port>
			</input>
			<output>
				<port id="2" precision="FP32">
					<dim>2</dim>
					<dim>1025</dim>
					<dim>192</dim>
				</port>
			</output>
		</layer>
		<layer id="347" name="Constant_15089_compressed" type="Const" version="opset1">
			<data element_type="f16" shape="1, 1, 192" offset="4545554" size="384" />
			<output>
				<port id="0" precision="FP16">
					<dim>1</dim>
					<dim>1</dim>
					<dim>192</dim>
				</port>
			</output>
		</layer>
		<layer id="348" name="Constant_15089" type="Convert" version="opset1">
			<data destination_type="f32" />
			<rt_info>
				<attribute name="decompression" version="0" />
			</rt_info>
			<input>
				<port id="0" precision="FP16">
					<dim>1</dim>
					<dim>1</dim>
					<dim>192</dim>
				</port>
			</input>
			<output>
				<port id="1" precision="FP32">
					<dim>1</dim>
					<dim>1</dim>
					<dim>192</dim>
				</port>
			</output>
		</layer>
		<layer id="349" name="__module.encoder.blocks.4.attn.proj/aten::linear/Add" type="Add" version="opset1">
			<data auto_broadcast="numpy" />
			<input>
				<port id="0" precision="FP32">
					<dim>2</dim>
					<dim>1025</dim>
					<dim>192</dim>
				</port>
				<port id="1" precision="FP32">
					<dim>1</dim>
					<dim>1</dim>
					<dim>192</dim>
				</port>
			</input>
			<output>
				<port id="2" precision="FP32" names="359,input.89">
					<dim>2</dim>
					<dim>1025</dim>
					<dim>192</dim>
				</port>
			</output>
		</layer>
		<layer id="350" name="__module.encoder.blocks.4/aten::add/Add" type="Add" version="opset1">
			<data auto_broadcast="numpy" />
			<input>
				<port id="0" precision="FP32">
					<dim>2</dim>
					<dim>1025</dim>
					<dim>192</dim>
				</port>
				<port id="1" precision="FP32">
					<dim>2</dim>
					<dim>1025</dim>
					<dim>192</dim>
				</port>
			</input>
			<output>
				<port id="2" precision="FP32" names="360,input.91">
					<dim>2</dim>
					<dim>1025</dim>
					<dim>192</dim>
				</port>
			</output>
		</layer>
		<layer id="351" name="__module.encoder.blocks.4.norm2/aten::layer_norm/Constant" type="Const" version="opset1">
			<data element_type="i32" shape="1" offset="689688" size="4" />
			<output>
				<port id="0" precision="I32">
					<dim>1</dim>
				</port>
			</output>
		</layer>
		<layer id="352" name="__module.encoder.blocks.4.norm2/aten::layer_norm/MVN" type="MVN" version="opset6">
			<data eps="9.9999997473787516e-06" normalize_variance="true" eps_mode="INSIDE_SQRT" />
			<input>
				<port id="0" precision="FP32">
					<dim>2</dim>
					<dim>1025</dim>
					<dim>192</dim>
				</port>
				<port id="1" precision="I32">
					<dim>1</dim>
				</port>
			</input>
			<output>
				<port id="2" precision="FP32">
					<dim>2</dim>
					<dim>1025</dim>
					<dim>192</dim>
				</port>
			</output>
		</layer>
		<layer id="353" name="Constant_15090_compressed" type="Const" version="opset1">
			<data element_type="f16" shape="1, 1, 192" offset="4545938" size="384" />
			<output>
				<port id="0" precision="FP16">
					<dim>1</dim>
					<dim>1</dim>
					<dim>192</dim>
				</port>
			</output>
		</layer>
		<layer id="354" name="Constant_15090" type="Convert" version="opset1">
			<data destination_type="f32" />
			<rt_info>
…
		<edge from-layer="486" from-port="0" to-layer="487" to-port="1" />
		<edge from-layer="487" from-port="2" to-layer="488" to-port="1" />
		<edge from-layer="488" from-port="2" to-layer="489" to-port="1" />
		<edge from-layer="489" from-port="2" to-layer="492" to-port="0" />
		<edge from-layer="490" from-port="0" to-layer="491" to-port="0" />
		<edge from-layer="491" from-port="1" to-layer="492" to-port="1" />
		<edge from-layer="492" from-port="2" to-layer="495" to-port="0" />
		<edge from-layer="493" from-port="0" to-layer="494" to-port="0" />
		<edge from-layer="494" from-port="1" to-layer="495" to-port="1" />
		<edge from-layer="495" from-port="2" to-layer="496" to-port="1" />
		<edge from-layer="496" from-port="2" to-layer="518" to-port="0" />
		<edge from-layer="496" from-port="2" to-layer="498" to-port="0" />
		<edge from-layer="497" from-port="0" to-layer="498" to-port="1" />
		<edge from-layer="498" from-port="2" to-layer="501" to-port="0" />
		<edge from-layer="499" from-port="0" to-layer="500" to-port="0" />
		<edge from-layer="500" from-port="1" to-layer="501" to-port="1" />
		<edge from-layer="501" from-port="2" to-layer="504" to-port="0" />
		<edge from-layer="502" from-port="0" to-layer="503" to-port="0" />
		<edge from-layer="503" from-port="1" to-layer="504" to-port="1" />
		<edge from-layer="504" from-port="2" to-layer="507" to-port="0" />
		<edge from-layer="505" from-port="0" to-layer="506" to-port="0" />
		<edge from-layer="506" from-port="1" to-layer="507" to-port="1" />
		<edge from-layer="507" from-port="2" to-layer="510" to-port="0" />
		<edge from-layer="508" from-port="0" to-layer="509" to-port="0" />
		<edge from-layer="509" from-port="1" to-layer="510" to-port="1" />
		<edge from-layer="510" from-port="2" to-layer="511" to-port="0" />
		<edge from-layer="511" from-port="1" to-layer="514" to-port="0" />
		<edge from-layer="512" from-port="0" to-layer="513" to-port="0" />
		<edge from-layer="513" from-port="1" to-layer="514" to-port="1" />
		<edge from-layer="514" from-port="2" to-layer="517" to-port="0" />
		<edge from-layer="515" from-port="0" to-layer="516" to-port="0" />
		<edge from-layer="516" from-port="1" to-layer="517" to-port="1" />
		<edge from-layer="517" from-port="2" to-layer="518" to-port="1" />
		<edge from-layer="518" from-port="2" to-layer="520" to-port="0" />
		<edge from-layer="518" from-port="2" to-layer="569" to-port="0" />
		<edge from-layer="519" from-port="0" to-layer="520" to-port="1" />
		<edge from-layer="520" from-port="2" to-layer="523" to-port="0" />
		<edge from-layer="521" from-port="0" to-layer="522" to-port="0" />
		<edge from-layer="522" from-port="1" to-layer="523" to-port="1" />
		<edge from-layer="523" from-port="2" to-layer="526" to-port="0" />
		<edge from-layer="524" from-port="0" to-layer="525" to-port="0" />
		<edge from-layer="525" from-port="1" to-layer="526" to-port="1" />
		<edge from-layer="526" from-port="2" to-layer="533" to-port="0" />
		<edge from-layer="526" from-port="2" to-layer="529" to-port="0" />
		<edge from-layer="527" from-port="0" to-layer="528" to-port="0" />
		<edge from-layer="528" from-port="1" to-layer="529" to-port="1" />
		<edge from-layer="529" from-port="2" to-layer="532" to-port="0" />
		<edge from-layer="530" from-port="0" to-layer="531" to-port="0" />
		<edge from-layer="531" from-port="1" to-layer="532" to-port="1" />
		<edge from-layer="532" from-port="2" to-layer="546" to-port="0" />
		<edge from-layer="533" from-port="1" to-layer="536" to-port="0" />
		<edge from-layer="533" from-port="1" to-layer="540" to-port="0" />
		<edge from-layer="534" from-port="0" to-layer="536" to-port="1" />
		<edge from-layer="535" from-port="0" to-layer="536" to-port="2" />
		<edge from-layer="536" from-port="3" to-layer="545" to-port="0" />
		<edge from-layer="536" from-port="3" to-layer="561" to-port="0" />
		<edge from-layer="537" from-port="0" to-layer="545" to-port="1" />
		<edge from-layer="538" from-port="0" to-layer="545" to-port="2" />
		<edge from-layer="539" from-port="0" to-layer="540" to-port="2" />
		<edge from-layer="540" from-port="3" to-layer="560" to-port="0" />
		<edge from-layer="540" from-port="3" to-layer="541" to-port="0" />
		<edge from-layer="541" from-port="2" to-layer="542" to-port="0" />
		<edge from-layer="542" from-port="1" to-layer="544" to-port="0" />
		<edge from-layer="543" from-port="0" to-layer="544" to-port="1" />
		<edge from-layer="544" from-port="2" to-layer="545" to-port="3" />
		<edge from-layer="545" from-port="4" to-layer="546" to-port="1" />
		<edge from-layer="546" from-port="2" to-layer="547" to-port="0" />
		<edge from-layer="547" from-port="2" to-layer="548" to-port="0" />
		<edge from-layer="547" from-port="2" to-layer="549" to-port="0" />
		<edge from-layer="547" from-port="2" to-layer="555" to-port="0" />
		<edge from-layer="548" from-port="3" to-layer="553" to-port="0" />
		<edge from-layer="549" from-port="3" to-layer="552" to-port="0" />
		<edge from-layer="550" from-port="0" to-layer="551" to-port="0" />
		<edge from-layer="551" from-port="1" to-layer="552" to-port="1" />
		<edge from-layer="552" from-port="2" to-layer="553" to-port="1" />
		<edge from-layer="553" from-port="2" to-layer="554" to-port="0" />
		<edge from-layer="554" from-port="1" to-layer="556" to-port="0" />
		<edge from-layer="555" from-port="3" to-layer="556" to-port="1" />
		<edge from-layer="556" from-port="2" to-layer="558" to-port="0" />
		<edge from-layer="557" from-port="0" to-layer="558" to-port="1" />
		<edge from-layer="558" from-port="2" to-layer="562" to-port="0" />
		<edge from-layer="559" from-port="0" to-layer="560" to-port="1" />
		<edge from-layer="560" from-port="2" to-layer="561" to-port="1" />
		<edge from-layer="561" from-port="2" to-layer="562" to-port="1" />
		<edge from-layer="562" from-port="2" to-layer="565" to-port="0" />
		<edge from-layer="563" from-port="0" to-layer="564" to-port="0" />
		<edge from-layer="564" from-port="1" to-layer="565" to-port="1" />
		<edge from-layer="565" from-port="2" to-layer="568" to-port="0" />
		<edge from-layer="566" from-port="0" to-layer="567" to-port="0" />
		<edge from-layer="567" from-port="1" to-layer="568" to-port="1" />
		<edge from-layer="568" from-port="2" to-layer="569" to-port="1" />
		<edge from-layer="569" from-port="2" to-layer="571" to-port="0" />
		<edge from-layer="569" from-port="2" to-layer="591" to-port="0" />
		<edge from-layer="570" from-port="0" to-layer="571" to-port="1" />
		<edge from-layer="571" from-port="2" to-layer="574" to-port="0" />
		<edge from-layer="572" from-port="0" to-layer="573" to-port="0" />
		<edge from-layer="573" from-port="1" to-layer="574" to-port="1" />
		<edge from-layer="574" from-port="2" to-layer="577" to-port="0" />
		<edge from-layer="575" from-port="0" to-layer="576" to-port="0" />
		<edge from-layer="576" from-port="1" to-layer="577" to-port="1" />
		<edge from-layer="577" from-port="2" to-layer="580" to-port="0" />
		<edge from-layer="578" from-port="0" to-layer="579" to-port="0" />
		<edge from-layer="579" from-port="1" to-layer="580" to-port="1" />
		<edge from-layer="580" from-port="2" to-layer="583" to-port="0" />
		<edge from-layer="581" from-port="0" to-layer="582" to-port="0" />
		<edge from-layer="582" from-port="1" to-layer="583" to-port="1" />
		<edge from-layer="583" from-port="2" to-layer="584" to-port="0" />
		<edge from-layer="584" from-port="1" to-layer="587" to-port="0" />
		<edge from-layer="585" from-port="0" to-layer="586" to-port="0" />
		<edge from-layer="586" from-port="1" to-layer="587" to-port="1" />
		<edge from-layer="587" from-port="2" to-layer="590" to-port="0" />
		<edge from-layer="588" from-port="0" to-layer="589" to-port="0" />
		<edge from-layer="589" from-port="1" to-layer="590" to-port="1" />
		<edge from-layer="590" from-port="2" to-layer="591" to-port="1" />
		<edge from-layer="591" from-port="2" to-layer="642" to-port="0" />
		<edge from-layer="591" from-port="2" to-layer="593" to-port="0" />
		<edge from-layer="592" from-port="0" to-layer="593" to-port="1" />
		<edge from-layer="593" from-port="2" to-layer="596" to-port="0" />
		<edge from-layer="594" from-port="0" to-layer="595" to-port="0" />
		<edge from-layer="595" from-port="1" to-layer="596" to-port="1" />
		<edge from-layer="596" from-port="2" to-layer="599" to-port="0" />
		<edge from-layer="597" from-port="0" to-layer="598" to-port="0" />
		<edge from-layer="598" from-port="1" to-layer="599" to-port="1" />
		<edge from-layer="599" from-port="2" to-layer="606" to-port="0" />
		<edge from-layer="599" from-port="2" to-layer="602" to-port="0" />
		<edge from-layer="600" from-port="0" to-layer="601" to-port="0" />
		<edge from-layer="601" from-port="1" to-layer="602" to-port="1" />
		<edge from-layer="602" from-port="2" to-layer="605" to-port="0" />
		<edge from-layer="603" from-port="0" to-layer="604" to-port="0" />
		<edge from-layer="604" from-port="1" to-layer="605" to-port="1" />
		<edge from-layer="605" from-port="2" to-layer="619" to-port="0" />
		<edge from-layer="606" from-port="1" to-layer="609" to-port="0" />
		<edge from-layer="606" from-port="1" to-layer="613" to-port="0" />
		<edge from-layer="607" from-port="0" to-layer="609" to-port="1" />
		<edge from-layer="608" from-port="0" to-layer="609" to-port="2" />
		<edge from-layer="609" from-port="3" to-layer="618" to-port="0" />
		<edge from-layer="609" from-port="3" to-layer="634" to-port="0" />
		<edge from-layer="610" from-port="0" to-layer="618" to-port="1" />
		<edge from-layer="611" from-port="0" to-layer="618" to-port="2" />
		<edge from-layer="612" from-port="0" to-layer="613" to-port="2" />
		<edge from-layer="613" from-port="3" to-layer="633" to-port="0" />
		<edge from-layer="613" from-port="3" to-layer="614" to-port="0" />
		<edge from-layer="614" from-port="2" to-layer="615" to-port="0" />
		<edge from-layer="615" from-port="1" to-layer="617" to-port="0" />
		<edge from-layer="616" from-port="0" to-layer="617" to-port="1" />
		<edge from-layer="617" from-port="2" to-layer="618" to-port="3" />
		<edge from-layer="618" from-port="4" to-layer="619" to-port="1" />
		<edge from-layer="619" from-port="2" to-layer="620" to-port="0" />
		<edge from-layer="620" from-port="2" to-layer="628" to-port="0" />
		<edge from-layer="620" from-port="2" to-layer="622" to-port="0" />
		<edge from-layer="620" from-port="2" to-layer="621" to-port="0" />
		<edge from-layer="621" from-port="3" to-layer="626" to-port="0" />
		<edge from-layer="622" from-port="3" to-layer="625" to-port="0" />
		<edge from-layer="623" from-port="0" to-layer="624" to-port="0" />
		<edge from-layer="624" from-port="1" to-layer="625" to-port="1" />
		<edge from-layer="625" from-port="2" to-layer="626" to-port="1" />
		<edge from-layer="626" from-port="2" to-layer="627" to-port="0" />
		<edge from-layer="627" from-port="1" to-layer="629" to-port="0" />
		<edge from-layer="628" from-port="3" to-layer="629" to-port="1" />
		<edge from-layer="629" from-port="2" to-layer="631" to-port="0" />
		<edge from-layer="630" from-port="0" to-layer="631" to-port="1" />
		<edge from-layer="631" from-port="2" to-layer="635" to-port="0" />
		<edge from-layer="632" from-port="0" to-layer="633" to-port="1" />
		<edge from-layer="633" from-port="2" to-layer="634" to-port="1" />
		<edge from-layer="634" from-port="2" to-layer="635" to-port="1" />
		<edge from-layer="635" from-port="2" to-layer="638" to-port="0" />
		<edge from-layer="636" from-port="0" to-layer="637" to-port="0" />
		<edge from-layer="637" from-port="1" to-layer="638" to-port="1" />
		<edge from-layer="638" from-port="2" to-layer="641" to-port="0" />
		<edge from-layer="639" from-port="0" to-layer="640" to-port="0" />
		<edge from-layer="640" from-port="1" to-layer="641" to-port="1" />
		<edge from-layer="641" from-port="2" to-layer="642" to-port="1" />
		<edge from-layer="642" from-port="2" to-layer="644" to-port="0" />
		<edge from-layer="642" from-port="2" to-layer="664" to-port="0" />
		<edge from-layer="643" from-port="0" to-layer="644" to-port="1" />
		<edge from-layer="644" from-port="2" to-layer="647" to-port="0" />
		<edge from-layer="645" from-port="0" to-layer="646" to-port="0" />
		<edge from-layer="646" from-port="1" to-layer="647" to-port="1" />
		<edge from-layer="647" from-port="2" to-layer="650" to-port="0" />
		<edge from-layer="648" from-port="0" to-layer="649" to-port="0" />
		<edge from-layer="649" from-port="1" to-layer="650" to-port="1" />
		<edge from-layer="650" from-port="2" to-layer="653" to-port="0" />
		<edge from-layer="651" from-port="0" to-layer="652" to-port="0" />
		<edge from-layer="652" from-port="1" to-layer="653" to-port="1" />
		<edge from-layer="653" from-port="2" to-layer="656" to-port="0" />
		<edge from-layer="654" from-port="0" to-layer="655" to-port="0" />
		<edge from-layer="655" from-port="1" to-layer="656" to-port="1" />
		<edge from-layer="656" from-port="2" to-layer="657" to-port="0" />
		<edge from-layer="657" from-port="1" to-layer="660" to-port="0" />
		<edge from-layer="658" from-port="0" to-layer="659" to-port="0" />
		<edge from-layer="659" from-port="1" to-layer="660" to-port="1" />
		<edge from-layer="660" from-port="2" to-layer="663" to-port="0" />
		<edge from-layer="661" from-port="0" to-layer="662" to-port="0" />
		<edge from-layer="662" from-port="1" to-layer="663" to-port="1" />
		<edge from-layer="663" from-port="2" to-layer="664" to-port="1" />
		<edge from-layer="664" from-port="2" to-layer="666" to-port="0" />
		<edge from-layer="664" from-port="2" to-layer="715" to-port="0" />
		<edge from-layer="665" from-port="0" to-layer="666" to-port="1" />
		<edge from-layer="666" from-port="2" to-layer="669" to-port="0" />
		<edge from-layer="667" from-port="0" to-layer="668" to-port="0" />
		<edge from-layer="668" from-port="1" to-layer="669" to-port="1" />
		<edge from-layer="669" from-port="2" to-layer="672" to-port="0" />
		<edge from-layer="670" from-port="0" to-layer="671" to-port="0" />
		<edge from-layer="671" from-port="1" to-layer="672" to-port="1" />
		<edge from-layer="672" from-port="2" to-layer="675" to-port="0" />
		<edge from-layer="672" from-port="2" to-layer="679" to-port="0" />
		<edge from-layer="673" from-port="0" to-layer="674" to-port="0" />
		<edge from-layer="674" from-port="1" to-layer="675" to-port="1" />
		<edge from-layer="675" from-port="2" to-layer="678" to-port="0" />
		<edge from-layer="676" from-port="0" to-layer="677" to-port="0" />
		<edge from-layer="677" from-port="1" to-layer="678" to-port="1" />
		<edge from-layer="678" from-port="2" to-layer="692" to-port="0" />
		<edge from-layer="679" from-port="1" to-layer="682" to-port="0" />
		<edge from-layer="679" from-port="1" to-layer="686" to-port="0" />
		<edge from-layer="680" from-port="0" to-layer="682" to-port="1" />
		<edge from-layer="681" from-port="0" to-layer="682" to-port="2" />
		<edge from-layer="682" from-port="3" to-layer="691" to-port="0" />
		<edge from-layer="682" from-port="3" to-layer="707" to-port="0" />
		<edge from-layer="683" from-port="0" to-layer="691" to-port="1" />
		<edge from-layer="684" from-port="0" to-layer="691" to-port="2" />
		<edge from-layer="685" from-port="0" to-layer="686" to-port="2" />
		<edge from-layer="686" from-port="3" to-layer="687" to-port="0" />
		<edge from-layer="686" from-port="3" to-layer="706" to-port="0" />
		<edge from-layer="687" from-port="2" to-layer="688" to-port="0" />
		<edge from-layer="688" from-port="1" to-layer="690" to-port="0" />
		<edge from-layer="689" from-port="0" to-layer="690" to-port="1" />
		<edge from-layer="690" from-port="2" to-layer="691" to-port="3" />
		<edge from-layer="691" from-port="4" to-layer="692" to-port="1" />
		<edge from-layer="692" from-port="2" to-layer="693" to-port="0" />
		<edge from-layer="693" from-port="2" to-layer="695" to-port="0" />
		<edge from-layer="693" from-port="2" to-layer="694" to-port="0" />
		<edge from-layer="693" from-port="2" to-layer="701" to-port="0" />
		<edge from-layer="694" from-port="3" to-layer="699" to-port="0" />
		<edge from-layer="695" from-port="3" to-layer="698" to-port="0" />
		<edge from-layer="696" from-port="0" to-layer="697" to-port="0" />
		<edge from-layer="697" from-port="1" to-layer="698" to-port="1" />
		<edge from-layer="698" from-port="2" to-layer="699" to-port="1" />
		<edge from-layer="699" from-port="2" to-layer="700" to-port="0" />
		<edge from-layer="700" from-port="1" to-layer="702" to-port="0" />
		<edge from-layer="701" from-port="3" to-layer="702" to-port="1" />
		<edge from-layer="702" from-port="2" to-layer="704" to-port="0" />
		<edge from-layer="703" from-port="0" to-layer="704" to-port="1" />
		<edge from-layer="704" from-port="2" to-layer="708" to-port="0" />
		<edge from-layer="705" from-port="0" to-layer="706" to-port="1" />
		<edge from-layer="706" from-port="2" to-layer="707" to-port="1" />
		<edge from-layer="707" from-port="2" to-layer="708" to-port="1" />
		<edge from-layer="708" from-port="2" to-layer="711" to-port="0" />
		<edge from-layer="709" from-port="0" to-layer="710" to-port="0" />
		<edge from-layer="710" from-port="1" to-layer="711" to-port="1" />
		<edge from-layer="711" from-port="2" to-layer="714" to-port="0" />
		<edge from-layer="712" from-port="0" to-layer="713" to-port="0" />
		<edge from-layer="713" from-port="1" to-layer="714" to-port="1" />
		<edge from-layer="714" from-port="2" to-layer="715" to-port="1" />
		<edge from-layer="715" from-port="2" to-layer="737" to-port="0" />
		<edge from-layer="715" from-port="2" to-layer="717" to-port="0" />
		<edge from-layer="716" from-port="0" to-layer="717" to-port="1" />
		<edge from-layer="717" from-port="2" to-layer="720" to-port="0" />
		<edge from-layer="718" from-port="0" to-layer="719" to-port="0" />
		<edge from-layer="719" from-port="1" to-layer="720" to-port="1" />
		<edge from-layer="720" from-port="2" to-layer="723" to-port="0" />
		<edge from-layer="721" from-port="0" to-layer="722" to-port="0" />
		<edge from-layer="722" from-port="1" to-layer="723" to-port="1" />
		<edge from-layer="723" from-port="2" to-layer="726" to-port="0" />
		<edge from-layer="724" from-port="0" to-layer="725" to-port="0" />
		<edge from-layer="725" from-port="1" to-layer="726" to-port="1" />
		<edge from-layer="726" from-port="2" to-layer="729" to-port="0" />
		<edge from-layer="727" from-port="0" to-layer="728" to-port="0" />
		<edge from-layer="728" from-port="1" to-layer="729" to-port="1" />
		<edge from-layer="729" from-port="2" to-layer="730" to-port="0" />
		<edge from-layer="730" from-port="1" to-layer="733" to-port="0" />
		<edge from-layer="731" from-port="0" to-layer="732" to-port="0" />
		<edge from-layer="732" from-port="1" to-layer="733" to-port="1" />
		<edge from-layer="733" from-port="2" to-layer="736" to-port="0" />
		<edge from-layer="734" from-port="0" to-layer="735" to-port="0" />
		<edge from-layer="735" from-port="1" to-layer="736" to-port="1" />
		<edge from-layer="736" from-port="2" to-layer="737" to-port="1" />
		<edge from-layer="737" from-port="2" to-layer="788" to-port="0" />
		<edge from-layer="737" from-port="2" to-layer="739" to-port="0" />
		<edge from-layer="738" from-port="0" to-layer="739" to-port="1" />
		<edge from-layer="739" from-port="2" to-layer="742" to-port="0" />
		<edge from-layer="740" from-port="0" to-layer="741" to-port="0" />
		<edge from-layer="741" from-port="1" to-layer="742" to-port="1" />
		<edge from-layer="742" from-port="2" to-layer="745" to-port="0" />
		<edge from-layer="743" from-port="0" to-layer="744" to-port="0" />
		<edge from-layer="744" from-port="1" to-layer="745" to-port="1" />
		<edge from-layer="745" from-port="2" to-layer="748" to-port="0" />
		<edge from-layer="745" from-port="2" to-layer="752" to-port="0" />
		<edge from-layer="746" from-port="0" to-layer="747" to-port="0" />
		<edge from-layer="747" from-port="1" to-layer="748" to-port="1" />
		<edge from-layer="748" from-port="2" to-layer="751" to-port="0" />
		<edge from-layer="749" from-port="0" to-layer="750" to-port="0" />
		<edge from-layer="750" from-port="1" to-layer="751" to-port="1" />
		<edge from-layer="751" from-port="2" to-layer="765" to-port="0" />
		<edge from-layer="752" from-port="1" to-layer="759" to-port="0" />
		<edge from-layer="752" from-port="1" to-layer="755" to-port="0" />
		<edge from-layer="753" from-port="0" to-layer="755" to-port="1" />
		<edge from-layer="754" from-port="0" to-layer="755" to-port="2" />
		<edge from-layer="755" from-port="3" to-layer="780" to-port="0" />
		<edge from-layer="755" from-port="3" to-layer="764" to-port="0" />
		<edge from-layer="756" from-port="0" to-layer="764" to-port="1" />
		<edge from-layer="757" from-port="0" to-layer="764" to-port="2" />
		<edge from-layer="758" from-port="0" to-layer="759" to-port="2" />
		<edge from-layer="759" from-port="3" to-layer="760" to-port="0" />
		<edge from-layer="759" from-port="3" to-layer="779" to-port="0" />
		<edge from-layer="760" from-port="2" to-layer="761" to-port="0" />
		<edge from-layer="761" from-port="1" to-layer="763" to-port="0" />
		<edge from-layer="762" from-port="0" to-layer="763" to-port="1" />
		<edge from-layer="763" from-port="2" to-layer="764" to-port="3" />
		<edge from-layer="764" from-port="4" to-layer="765" to-port="1" />
		<edge from-layer="765" from-port="2" to-layer="766" to-port="0" />
		<edge from-layer="766" from-port="2" to-layer="767" to-port="0" />
		<edge from-layer="766" from-port="2" to-layer="774" to-port="0" />
		<edge from-layer="766" from-port="2" to-layer="768" to-port="0" />
		<edge from-layer="767" from-port="3" to-layer="772" to-port="0" />
		<edge from-layer="768" from-port="3" to-layer="771" to-port="0" />
		<edge from-layer="769" from-port="0" to-layer="770" to-port="0" />
		<edge from-layer="770" from-port="1" to-layer="771" to-port="1" />
		<edge from-layer="771" from-port="2" to-layer="772" to-port="1" />
		<edge from-layer="772" from-port="2" to-layer="773" to-port="0" />
		<edge from-layer="773" from-port="1" to-layer="775" to-port="0" />
		<edge from-layer="774" from-port="3" to-layer="775" to-port="1" />
		<edge from-layer="775" from-port="2" to-layer="777" to-port="0" />
		<edge from-layer="776" from-port="0" to-layer="777" to-port="1" />
		<edge from-layer="777" from-port="2" to-layer="781" to-port="0" />
		<edge from-layer="778" from-port="0" to-layer="779" to-port="1" />
		<edge from-layer="779" from-port="2" to-layer="780" to-port="1" />
		<edge from-layer="780" from-port="2" to-layer="781" to-port="1" />
		<edge from-layer="781" from-port="2" to-layer="784" to-port="0" />
		<edge from-layer="782" from-port="0" to-layer="783" to-port="0" />
		<edge from-layer="783" from-port="1" to-layer="784" to-port="1" />
		<edge from-layer="784" from-port="2" to-layer="787" to-port="0" />
		<edge from-layer="785" from-port="0" to-layer="786" to-port="0" />
		<edge from-layer="786" from-port="1" to-layer="787" to-port="1" />
		<edge from-layer="787" from-port="2" to-layer="788" to-port="1" />
		<edge from-layer="788" from-port="2" to-layer="790" to-port="0" />
		<edge from-layer="788" from-port="2" to-layer="810" to-port="0" />
		<edge from-layer="789" from-port="0" to-layer="790" to-port="1" />
		<edge from-layer="790" from-port="2" to-layer="793" to-port="0" />
		<edge from-layer="791" from-port="0" to-layer="792" to-port="0" />
		<edge from-layer="792" from-port="1" to-layer="793" to-port="1" />
		<edge from-layer="793" from-port="2" to-layer="796" to-port="0" />
		<edge from-layer="794" from-port="0" to-layer="795" to-port="0" />
		<edge from-layer="795" from-port="1" to-layer="796" to-port="1" />
		<edge from-layer="796" from-port="2" to-layer="799" to-port="0" />
		<edge from-layer="797" from-port="0" to-layer="798" to-port="0" />
		<edge from-layer="798" from-port="1" to-layer="799" to-port="1" />
		<edge from-layer="799" from-port="2" to-layer="802" to-port="0" />
		<edge from-layer="800" from-port="0" to-layer="801" to-port="0" />
		<edge from-layer="801" from-port="1" to-layer="802" to-port="1" />
		<edge from-layer="802" from-port="2" to-layer="803" to-port="0" />
		<edge from-layer="803" from-port="1" to-layer="806" to-port="0" />
		<edge from-layer="804" from-port="0" to-layer="805" to-port="0" />
		<edge from-layer="805" from-port="1" to-layer="806" to-port="1" />
		<edge from-layer="806" from-port="2" to-layer="809" to-port="0" />
		<edge from-layer="807" from-port="0" to-layer="808" to-port="0" />
		<edge from-layer="808" from-port="1" to-layer="809" to-port="1" />
		<edge from-layer="809" from-port="2" to-layer="810" to-port="1" />
		<edge from-layer="810" from-port="2" to-layer="812" to-port="0" />
		<edge from-layer="810" from-port="2" to-layer="861" to-port="0" />
		<edge from-layer="811" from-port="0" to-layer="812" to-port="1" />
		<edge from-layer="812" from-port="2" to-layer="815" to-port="0" />
		<edge from-layer="813" from-port="0" to-layer="814" to-port="0" />
		<edge from-layer="814" from-port="1" to-layer="815" to-port="1" />
		<edge from-layer="815" from-port="2" to-layer="818" to-port="0" />
		<edge from-layer="816" from-port="0" to-layer="817" to-port="0" />
		<edge from-layer="817" from-port="1" to-layer="818" to-port="1" />
		<edge from-layer="818" from-port="2" to-layer="821" to-port="0" />
		<edge from-layer="818" from-port="2" to-layer="825" to-port="0" />
		<edge from-layer="819" from-port="0" to-layer="820" to-port="0" />
		<edge from-layer="820" from-port="1" to-layer="821" to-port="1" />
		<edge from-layer="821" from-port="2" to-layer="824" to-port="0" />
		<edge from-layer="822" from-port="0" to-layer="823" to-port="0" />
		<edge from-layer="823" from-port="1" to-layer="824" to-port="1" />
		<edge from-layer="824" from-port="2" to-layer="838" to-port="0" />
		<edge from-layer="825" from-port="1" to-layer="828" to-port="0" />
		<edge from-layer="825" from-port="1" to-layer="832" to-port="0" />
		<edge from-layer="826" from-port="0" to-layer="828" to-port="1" />
		<edge from-layer="827" from-port="0" to-layer="828" to-port="2" />
		<edge from-layer="828" from-port="3" to-layer="837" to-port="0" />
		<edge from-layer="828" from-port="3" to-layer="853" to-port="0" />
		<edge from-layer="829" from-port="0" to-layer="837" to-port="1" />
		<edge from-layer="830" from-port="0" to-layer="837" to-port="2" />
		<edge from-layer="831" from-port="0" to-layer="832" to-port="2" />
		<edge from-layer="832" from-port="3" to-layer="833" to-port="0" />
		<edge from-layer="832" from-port="3" to-layer="852" to-port="0" />
		<edge from-layer="833" from-port="2" to-layer="834" to-port="0" />
		<edge from-layer="834" from-port="1" to-layer="836" to-port="0" />
		<edge from-layer="835" from-port="0" to-layer="836" to-port="1" />
		<edge from-layer="836" from-port="2" to-layer="837" to-port="3" />
		<edge from-layer="837" from-port="4" to-layer="838" to-port="1" />
		<edge from-layer="838" from-port="2" to-layer="839" to-port="0" />
		<edge from-layer="839" from-port="2" to-layer="847" to-port="0" />
		<edge from-layer="839" from-port="2" to-layer="840" to-port="0" />
		<edge from-layer="839" from-port="2" to-layer="841" to-port="0" />
		<edge from-layer="840" from-port="3" to-layer="845" to-port="0" />
		<edge from-layer="841" from-port="3" to-layer="844" to-port="0" />
		<edge from-layer="842" from-port="0" to-layer="843" to-port="0" />
		<edge from-layer="843" from-port="1" to-layer="844" to-port="1" />
		<edge from-layer="844" from-port="2" to-layer="845" to-port="1" />
		<edge from-layer="845" from-port="2" to-layer="846" to-port="0" />
		<edge from-layer="846" from-port="1" to-layer="848" to-port="0" />
		<edge from-layer="847" from-port="3" to-layer="848" to-port="1" />
		<edge from-layer="848" from-port="2" to-layer="850" to-port="0" />
		<edge from-layer="849" from-port="0" to-layer="850" to-port="1" />
		<edge from-layer="850" from-port="2" to-layer="854" to-port="0" />
		<edge from-layer="851" from-port="0" to-layer="852" to-port="1" />
		<edge from-layer="852" from-port="2" to-layer="853" to-port="1" />
		<edge from-layer="853" from-port="2" to-layer="854" to-port="1" />
		<edge from-layer="854" from-port="2" to-layer="857" to-port="0" />
		<edge from-layer="855" from-port="0" to-layer="856" to-port="0" />
		<edge from-layer="856" from-port="1" to-layer="857" to-port="1" />
		<edge from-layer="857" from-port="2" to-layer="860" to-port="0" />
		<edge from-layer="858" from-port="0" to-layer="859" to-port="0" />
		<edge from-layer="859" from-port="1" to-layer="860" to-port="1" />
		<edge from-layer="860" from-port="2" to-layer="861" to-port="1" />
		<edge from-layer="861" from-port="2" to-layer="863" to-port="0" />
		<edge from-layer="861" from-port="2" to-layer="883" to-port="0" />
		<edge from-layer="862" from-port="0" to-layer="863" to-port="1" />
		<edge from-layer="863" from-port="2" to-layer="866" to-port="0" />
		<edge from-layer="864" from-port="0" to-layer="865" to-port="0" />
		<edge from-layer="865" from-port="1" to-layer="866" to-port="1" />
		<edge from-layer="866" from-port="2" to-layer="869" to-port="0" />
		<edge from-layer="867" from-port="0" to-layer="868" to-port="0" />
		<edge from-layer="868" from-port="1" to-layer="869" to-port="1" />
		<edge from-layer="869" from-port="2" to-layer="872" to-port="0" />
		<edge from-layer="870" from-port="0" to-layer="871" to-port="0" />
		<edge from-layer="871" from-port="1" to-layer="872" to-port="1" />
		<edge from-layer="872" from-port="2" to-layer="875" to-port="0" />
		<edge from-layer="873" from-port="0" to-layer="874" to-port="0" />
		<edge from-layer="874" from-port="1" to-layer="875" to-port="1" />
		<edge from-layer="875" from-port="2" to-layer="876" to-port="0" />
		<edge from-layer="876" from-port="1" to-layer="879" to-port="0" />
		<edge from-layer="877" from-port="0" to-layer="878" to-port="0" />
		<edge from-layer="878" from-port="1" to-layer="879" to-port="1" />
		<edge from-layer="879" from-port="2" to-layer="882" to-port="0" />
		<edge from-layer="880" from-port="0" to-layer="881" to-port="0" />
		<edge from-layer="881" from-port="1" to-layer="882" to-port="1" />
		<edge from-layer="882" from-port="2" to-layer="883" to-port="1" />
		<edge from-layer="883" from-port="2" to-layer="885" to-port="0" />
		<edge from-layer="884" from-port="0" to-layer="885" to-port="1" />
		<edge from-layer="885" from-port="2" to-layer="888" to-port="0" />
		<edge from-layer="886" from-port="0" to-layer="887" to-port="0" />
		<edge from-layer="887" from-port="1" to-layer="888" to-port="1" />
		<edge from-layer="888" from-port="2" to-layer="891" to-port="0" />
		<edge from-layer="889" from-port="0" to-layer="890" to-port="0" />
		<edge from-layer="890" from-port="1" to-layer="891" to-port="1" />
		<edge from-layer="891" from-port="2" to-layer="895" to-port="0" />
		<edge from-layer="892" from-port="0" to-layer="895" to-port="1" />
		<edge from-layer="893" from-port="0" to-layer="895" to-port="2" />
		<edge from-layer="894" from-port="0" to-layer="895" to-port="3" />
		<edge from-layer="895" from-port="4" to-layer="899" to-port="0" />
		<edge from-layer="896" from-port="0" to-layer="899" to-port="1" />
		<edge from-layer="897" from-port="0" to-layer="899" to-port="2" />
		<edge from-layer="898" from-port="0" to-layer="899" to-port="3" />
		<edge from-layer="899" from-port="4" to-layer="902" to-port="0" />
		<edge from-layer="900" from-port="0" to-layer="901" to-port="0" />
		<edge from-layer="901" from-port="1" to-layer="902" to-port="1" />
		<edge from-layer="902" from-port="2" to-layer="905" to-port="0" />
		<edge from-layer="903" from-port="0" to-layer="904" to-port="0" />
		<edge from-layer="904" from-port="1" to-layer="905" to-port="1" />
		<edge from-layer="905" from-port="2" to-layer="908" to-port="0" />
		<edge from-layer="905" from-port="2" to-layer="920" to-port="0" />
		<edge from-layer="906" from-port="0" to-layer="907" to-port="0" />
		<edge from-layer="907" from-port="1" to-layer="919" to-port="0" />
		<edge from-layer="908" from-port="1" to-layer="911" to-port="0" />
		<edge from-layer="909" from-port="0" to-layer="911" to-port="1" />
		<edge from-layer="910" from-port="0" to-layer="911" to-port="2" />
		<edge from-layer="911" from-port="3" to-layer="914" to-port="0" />
		<edge from-layer="912" from-port="0" to-layer="914" to-port="1" />
		<edge from-layer="913" from-port="0" to-layer="914" to-port="2" />
		<edge from-layer="914" from-port="3" to-layer="916" to-port="0" />
		<edge from-layer="914" from-port="3" to-layer="918" to-port="2" />
		<edge from-layer="915" from-port="0" to-layer="916" to-port="1" />
		<edge from-layer="916" from-port="2" to-layer="918" to-port="0" />
		<edge from-layer="917" from-port="0" to-layer="918" to-port="1" />
		<edge from-layer="918" from-port="3" to-layer="919" to-port="1" />
		<edge from-layer="919" from-port="2" to-layer="920" to-port="1" />
		<edge from-layer="920" from-port="2" to-layer="922" to-port="0" />
		<edge from-layer="920" from-port="2" to-layer="971" to-port="0" />
		<edge from-layer="921" from-port="0" to-layer="922" to-port="1" />
		<edge from-layer="922" from-port="2" to-layer="925" to-port="0" />
		<edge from-layer="923" from-port="0" to-layer="924" to-port="0" />
		<edge from-layer="924" from-port="1" to-layer="925" to-port="1" />
		<edge from-layer="925" from-port="2" to-layer="928" to-port="0" />
		<edge from-layer="926" from-port="0" to-layer="927" to-port="0" />
		<edge from-layer="927" from-port="1" to-layer="928" to-port="1" />
		<edge from-layer="928" from-port="2" to-layer="935" to-port="0" />
		<edge from-layer="928" from-port="2" to-layer="931" to-port="0" />
		<edge from-layer="929" from-port="0" to-layer="930" to-port="0" />
		<edge from-layer="930" from-port="1" to-layer="931" to-port="1" />
		<edge from-layer="931" from-port="2" to-layer="934" to-port="0" />
		<edge from-layer="932" from-port="0" to-layer="933" to-port="0" />
		<edge from-layer="933" from-port="1" to-layer="934" to-port="1" />
		<edge from-layer="934" from-port="2" to-layer="948" to-port="0" />
		<edge from-layer="935" from-port="1" to-layer="938" to-port="0" />
		<edge from-layer="935" from-port="1" to-layer="942" to-port="0" />
		<edge from-layer="936" from-port="0" to-layer="938" to-port="1" />
		<edge from-layer="937" from-port="0" to-layer="938" to-port="2" />
		<edge from-layer="938" from-port="3" to-layer="947" to-port="0" />
		<edge from-layer="938" from-port="3" to-layer="963" to-port="0" />
		<edge from-layer="939" from-port="0" to-layer="947" to-port="1" />
		<edge from-layer="940" from-port="0" to-layer="947" to-port="2" />
		<edge from-layer="941" from-port="0" to-layer="942" to-port="2" />
		<edge from-layer="942" from-port="3" to-layer="943" to-port="0" />
		<edge from-layer="942" from-port="3" to-layer="962" to-port="0" />
		<edge from-layer="943" from-port="2" to-layer="944" to-port="0" />
		<edge from-layer="944" from-port="1" to-layer="946" to-port="0" />
		<edge from-layer="945" from-port="0" to-layer="946" to-port="1" />
		<edge from-layer="946" from-port="2" to-layer="947" to-port="3" />
		<edge from-layer="947" from-port="4" to-layer="948" to-port="1" />
		<edge from-layer="948" from-port="2" to-layer="949" to-port="0" />
		<edge from-layer="949" from-port="2" to-layer="950" to-port="0" />
		<edge from-layer="949" from-port="2" to-layer="951" to-port="0" />
		<edge from-layer="949" from-port="2" to-layer="957" to-port="0" />
		<edge from-layer="950" from-port="3" to-layer="955" to-port="0" />
		<edge from-layer="951" from-port="3" to-layer="954" to-port="0" />
		<edge from-layer="952" from-port="0" to-layer="953" to-port="0" />
		<edge from-layer="953" from-port="1" to-layer="954" to-port="1" />
		<edge from-layer="954" from-port="2" to-layer="955" to-port="1" />
		<edge from-layer="955" from-port="2" to-layer="956" to-port="0" />
		<edge from-layer="956" from-port="1" to-layer="958" to-port="0" />
		<edge from-layer="957" from-port="3" to-layer="958" to-port="1" />
		<edge from-layer="958" from-port="2" to-layer="960" to-port="0" />
		<edge from-layer="959" from-port="0" to-layer="960" to-port="1" />
		<edge from-layer="960" from-port="2" to-layer="964" to-port="0" />
		<edge from-layer="961" from-port="0" to-layer="962" to-port="1" />
		<edge from-layer="962" from-port="2" to-layer="963" to-port="1" />
		<edge from-layer="963" from-port="2" to-layer="964" to-port="1" />
		<edge from-layer="964" from-port="2" to-layer="967" to-port="0" />
		<edge from-layer="965" from-port="0" to-layer="966" to-port="0" />
		<edge from-layer="966" from-port="1" to-layer="967" to-port="1" />
		<edge from-layer="967" from-port="2" to-layer="970" to-port="0" />
		<edge from-layer="968" from-port="0" to-layer="969" to-port="0" />
		<edge from-layer="969" from-port="1" to-layer="970" to-port="1" />
		<edge from-layer="970" from-port="2" to-layer="971" to-port="1" />
		<edge from-layer="971" from-port="2" to-layer="973" to-port="0" />
		<edge from-layer="971" from-port="2" to-layer="993" to-port="0" />
		<edge from-layer="972" from-port="0" to-layer="973" to-port="1" />
		<edge from-layer="973" from-port="2" to-layer="976" to-port="0" />
		<edge from-layer="974" from-port="0" to-layer="975" to-port="0" />
		<edge from-layer="975" from-port="1" to-layer="976" to-port="1" />
		<edge from-layer="976" from-port="2" to-layer="979" to-port="0" />
		<edge from-layer="977" from-port="0" to-layer="978" to-port="0" />
		<edge from-layer="978" from-port="1" to-layer="979" to-port="1" />
		<edge from-layer="979" from-port="2" to-layer="982" to-port="0" />
		<edge from-layer="980" from-port="0" to-layer="981" to-port="0" />
		<edge from-layer="981" from-port="1" to-layer="982" to-port="1" />
		<edge from-layer="982" from-port="2" to-layer="985" to-port="0" />
		<edge from-layer="983" from-port="0" to-layer="984" to-port="0" />
		<edge from-layer="984" from-port="1" to-layer="985" to-port="1" />
		<edge from-layer="985" from-port="2" to-layer="986" to-port="0" />
		<edge from-layer="986" from-port="1" to-layer="989" to-port="0" />
		<edge from-layer="987" from-port="0" to-layer="988" to-port="0" />
		<edge from-layer="988" from-port="1" to-layer="989" to-port="1" />
		<edge from-layer="989" from-port="2" to-layer="992" to-port="0" />
		<edge from-layer="990" from-port="0" to-layer="991" to-port="0" />
		<edge from-layer="991" from-port="1" to-layer="992" to-port="1" />
		<edge from-layer="992" from-port="2" to-layer="993" to-port="1" />
		<edge from-layer="993" from-port="2" to-layer="995" to-port="0" />
		<edge from-layer="993" from-port="2" to-layer="1044" to-port="0" />
		<edge from-layer="994" from-port="0" to-layer="995" to-port="1" />
		<edge from-layer="995" from-port="2" to-layer="998" to-port="0" />
		<edge from-layer="996" from-port="0" to-layer="997" to-port="0" />
		<edge from-layer="997" from-port="1" to-layer="998" to-port="1" />
		<edge from-layer="998" from-port="2" to-layer="1001" to-port="0" />
		<edge from-layer="999" from-port="0" to-layer="1000" to-port="0" />
		<edge from-layer="1000" from-port="1" to-layer="1001" to-port="1" />
		<edge from-layer="1001" from-port="2" to-layer="1004" to-port="0" />
		<edge from-layer="1001" from-port="2" to-layer="1008" to-port="0" />
		<edge from-layer="1002" from-port="0" to-layer="1003" to-port="0" />
		<edge from-layer="1003" from-port="1" to-layer="1004" to-port="1" />
		<edge from-layer="1004" from-port="2" to-layer="1007" to-port="0" />
		<edge from-layer="1005" from-port="0" to-layer="1006" to-port="0" />
		<edge from-layer="1006" from-port="1" to-layer="1007" to-port="1" />
		<edge from-layer="1007" from-port="2" to-layer="1021" to-port="0" />
		<edge from-layer="1008" from-port="1" to-layer="1015" to-port="0" />
		<edge from-layer="1008" from-port="1" to-layer="1011" to-port="0" />
		<edge from-layer="1009" from-port="0" to-layer="1011" to-port="1" />
		<edge from-layer="1010" from-port="0" to-layer="1011" to-port="2" />
		<edge from-layer="1011" from-port="3" to-layer="1020" to-port="0" />
		<edge from-layer="1011" from-port="3" to-layer="1036" to-port="0" />
		<edge from-layer="1012" from-port="0" to-layer="1020" to-port="1" />
		<edge from-layer="1013" from-port="0" to-layer="1020" to-port="2" />
		<edge from-layer="1014" from-port="0" to-layer="1015" to-port="2" />
		<edge from-layer="1015" from-port="3" to-layer="1035" to-port="0" />
		<edge from-layer="1015" from-port="3" to-layer="1016" to-port="0" />
		<edge from-layer="1016" from-port="2" to-layer="1017" to-port="0" />
		<edge from-layer="1017" from-port="1" to-layer="1019" to-port="0" />
		<edge from-layer="1018" from-port="0" to-layer="1019" to-port="1" />
		<edge from-layer="1019" from-port="2" to-layer="1020" to-port="3" />
		<edge from-layer="1020" from-port="4" to-layer="1021" to-port="1" />
		<edge from-layer="1021" from-port="2" to-layer="1022" to-port="0" />
		<edge from-layer="1022" from-port="2" to-layer="1030" to-port="0" />
		<edge from-layer="1022" from-port="2" to-layer="1023" to-port="0" />
		<edge from-layer="1022" from-port="2" to-layer="1024" to-port="0" />
		<edge from-layer="1023" from-port="3" to-layer="1028" to-port="0" />
		<edge from-layer="1024" from-port="3" to-layer="1027" to-port="0" />
		<edge from-layer="1025" from-port="0" to-layer="1026" to-port="0" />
		<edge from-layer="1026" from-port="1" to-layer="1027" to-port="1" />
		<edge from-layer="1027" from-port="2" to-layer="1028" to-port="1" />
		<edge from-layer="1028" from-port="2" to-layer="1029" to-port="0" />
		<edge from-layer="1029" from-port="1" to-layer="1031" to-port="0" />
		<edge from-layer="1030" from-port="3" to-layer="1031" to-port="1" />
		<edge from-layer="1031" from-port="2" to-layer="1033" to-port="0" />
		<edge from-layer="1032" from-port="0" to-layer="1033" to-port="1" />
		<edge from-layer="1033" from-port="2" to-layer="1037" to-port="0" />
		<edge from-layer="1034" from-port="0" to-layer="1035" to-port="1" />
		<edge from-layer="1035" from-port="2" to-layer="1036" to-port="1" />
		<edge from-layer="1036" from-port="2" to-layer="1037" to-port="1" />
		<edge from-layer="1037" from-port="2" to-layer="1040" to-port="0" />
		<edge from-layer="1038" from-port="0" to-layer="1039" to-port="0" />
		<edge from-layer="1039" from-port="1" to-layer="1040" to-port="1" />
		<edge from-layer="1040" from-port="2" to-layer="1043" to-port="0" />
		<edge from-layer="1041" from-port="0" to-layer="1042" to-port="0" />
		<edge from-layer="1042" from-port="1" to-layer="1043" to-port="1" />
		<edge from-layer="1043" from-port="2" to-layer="1044" to-port="1" />
		<edge from-layer="1044" from-port="2" to-layer="1046" to-port="0" />
		<edge from-layer="1044" from-port="2" to-layer="1066" to-port="0" />
		<edge from-layer="1045" from-port="0" to-layer="1046" to-port="1" />
		<edge from-layer="1046" from-port="2" to-layer="1049" to-port="0" />
		<edge from-layer="1047" from-port="0" to-layer="1048" to-port="0" />
		<edge from-layer="1048" from-port="1" to-layer="1049" to-port="1" />
		<edge from-layer="1049" from-port="2" to-layer="1052" to-port="0" />
		<edge from-layer="1050" from-port="0" to-layer="1051" to-port="0" />
		<edge from-layer="1051" from-port="1" to-layer="1052" to-port="1" />
		<edge from-layer="1052" from-port="2" to-layer="1055" to-port="0" />
		<edge from-layer="1053" from-port="0" to-layer="1054" to-port="0" />
		<edge from-layer="1054" from-port="1" to-layer="1055" to-port="1" />
		<edge from-layer="1055" from-port="2" to-layer="1058" to-port="0" />
		<edge from-layer="1056" from-port="0" to-layer="1057" to-port="0" />
		<edge from-layer="1057" from-port="1" to-layer="1058" to-port="1" />
		<edge from-layer="1058" from-port="2" to-layer="1059" to-port="0" />
		<edge from-layer="1059" from-port="1" to-layer="1062" to-port="0" />
		<edge from-layer="1060" from-port="0" to-layer="1061" to-port="0" />
		<edge from-layer="1061" from-port="1" to-layer="1062" to-port="1" />
		<edge from-layer="1062" from-port="2" to-layer="1065" to-port="0" />
		<edge from-layer="1063" from-port="0" to-layer="1064" to-port="0" />
		<edge from-layer="1064" from-port="1" to-layer="1065" to-port="1" />
		<edge from-layer="1065" from-port="2" to-layer="1066" to-port="1" />
		<edge from-layer="1066" from-port="2" to-layer="1068" to-port="0" />
		<edge from-layer="1067" from-port="0" to-layer="1068" to-port="1" />
		<edge from-layer="1068" from-port="2" to-layer="1071" to-port="0" />
		<edge from-layer="1069" from-port="0" to-layer="1070" to-port="0" />
		<edge from-layer="1070" from-port="1" to-layer="1071" to-port="1" />
		<edge from-layer="1071" from-port="2" to-layer="1074" to-port="0" />
		<edge from-layer="1072" from-port="0" to-layer="1073" to-port="0" />
		<edge from-layer="1073" from-port="1" to-layer="1074" to-port="1" />
		<edge from-layer="1074" from-port="2" to-layer="1078" to-port="0" />
		<edge from-layer="1075" from-port="0" to-layer="1078" to-port="1" />
		<edge from-layer="1076" from-port="0" to-layer="1078" to-port="2" />
		<edge from-layer="1077" from-port="0" to-layer="1078" to-port="3" />
		<edge from-layer="1078" from-port="4" to-layer="1082" to-port="0" />
		<edge from-layer="1078" from-port="4" to-layer="1094" to-port="0" />
		<edge from-layer="1079" from-port="0" to-layer="1082" to-port="1" />
		<edge from-layer="1080" from-port="0" to-layer="1082" to-port="2" />
		<edge from-layer="1081" from-port="0" to-layer="1082" to-port="3" />
		<edge from-layer="1082" from-port="4" to-layer="1085" to-port="0" />
		<edge from-layer="1083" from-port="0" to-layer="1084" to-port="0" />
		<edge from-layer="1084" from-port="1" to-layer="1085" to-port="1" />
		<edge from-layer="1085" from-port="2" to-layer="1086" to-port="0" />
		<edge from-layer="1085" from-port="2" to-layer="1086" to-port="1" />
		<edge from-layer="1085" from-port="2" to-layer="1090" to-port="0" />
		<edge from-layer="1086" from-port="2" to-layer="1088" to-port="0" />
		<edge from-layer="1087" from-port="0" to-layer="1088" to-port="1" />
		<edge from-layer="1087" from-port="0" to-layer="1099" to-port="1" />
		<edge from-layer="1088" from-port="2" to-layer="1089" to-port="0" />
		<edge from-layer="1089" from-port="1" to-layer="1090" to-port="1" />
		<edge from-layer="1090" from-port="2" to-layer="1104" to-port="0" />
		<edge from-layer="1091" from-port="0" to-layer="1094" to-port="1" />
		<edge from-layer="1092" from-port="0" to-layer="1094" to-port="2" />
		<edge from-layer="1093" from-port="0" to-layer="1094" to-port="3" />
		<edge from-layer="1094" from-port="4" to-layer="1097" to-port="0" />
		<edge from-layer="1095" from-port="0" to-layer="1096" to-port="0" />
		<edge from-layer="1096" from-port="1" to-layer="1097" to-port="1" />
		<edge from-layer="1097" from-port="2" to-layer="1098" to-port="0" />
		<edge from-layer="1097" from-port="2" to-layer="1098" to-port="1" />
		<edge from-layer="1097" from-port="2" to-layer="1101" to-port="0" />
		<edge from-layer="1098" from-port="2" to-layer="1099" to-port="0" />
		<edge from-layer="1099" from-port="2" to-layer="1100" to-port="0" />
		<edge from-layer="1100" from-port="1" to-layer="1101" to-port="1" />
		<edge from-layer="1101" from-port="2" to-layer="1103" to-port="0" />
		<edge from-layer="1102" from-port="0" to-layer="1103" to-port="1" />
		<edge from-layer="1103" from-port="2" to-layer="1104" to-port="1" />
		<edge from-layer="1104" from-port="2" to-layer="1106" to-port="0" />
		<edge from-layer="1105" from-port="0" to-layer="1106" to-port="1" />
		<edge from-layer="1106" from-port="2" to-layer="1109" to-port="0" />
		<edge from-layer="1107" from-port="0" to-layer="1108" to-port="0" />
		<edge from-layer="1108" from-port="1" to-layer="1109" to-port="1" />
		<edge from-layer="1109" from-port="2" to-layer="1112" to-port="0" />
		<edge from-layer="1110" from-port="0" to-layer="1111" to-port="0" />
		<edge from-layer="1111" from-port="1" to-layer="1112" to-port="1" />
		<edge from-layer="1112" from-port="2" to-layer="1113" to-port="0" />
		<edge from-layer="1112" from-port="2" to-layer="1129" to-port="0" />
		<edge from-layer="1113" from-port="1" to-layer="1116" to-port="0" />
		<edge from-layer="1113" from-port="1" to-layer="1119" to-port="0" />
		<edge from-layer="1113" from-port="1" to-layer="1127" to-port="0" />
		<edge from-layer="1114" from-port="0" to-layer="1116" to-port="1" />
		<edge from-layer="1115" from-port="0" to-layer="1116" to-port="2" />
		<edge from-layer="1116" from-port="3" to-layer="1128" to-port="0" />
		<edge from-layer="1117" from-port="0" to-layer="1128" to-port="1" />
		<edge from-layer="1118" from-port="0" to-layer="1119" to-port="2" />
		<edge from-layer="1119" from-port="3" to-layer="1121" to-port="0" />
		<edge from-layer="1120" from-port="0" to-layer="1121" to-port="1" />
		<edge from-layer="1121" from-port="2" to-layer="1122" to-port="0" />
		<edge from-layer="1122" from-port="1" to-layer="1124" to-port="0" />
		<edge from-layer="1123" from-port="0" to-layer="1124" to-port="1" />
		<edge from-layer="1124" from-port="2" to-layer="1128" to-port="2" />
		<edge from-layer="1125" from-port="0" to-layer="1127" to-port="1" />
		<edge from-layer="1126" from-port="0" to-layer="1127" to-port="2" />
		<edge from-layer="1127" from-port="3" to-layer="1128" to-port="3" />
		<edge from-layer="1128" from-port="4" to-layer="1129" to-port="1" />
		<edge from-layer="1129" from-port="2" to-layer="1131" to-port="0" />
		<edge from-layer="1130" from-port="0" to-layer="1131" to-port="1" />
		<edge from-layer="1131" from-port="2" to-layer="1134" to-port="0" />
		<edge from-layer="1132" from-port="0" to-layer="1134" to-port="1" />
		<edge from-layer="1133" from-port="0" to-layer="1134" to-port="2" />
		<edge from-layer="1134" from-port="3" to-layer="1135" to-port="0" />
	</edges>
	<rt_info>
		<Runtime_version value="2023.1.0-12185-9e6b00e51cd-releases/2023/1" />
		<conversion_parameters>
			<framework value="pytorch" />
			<is_python_object value="True" />
		</conversion_parameters>
	</rt_info>
</net>
